output/best_sim/models/both/flow_final.pth (torch_old, 146362 bytes, 64 tensors)

module_list.0.global_scale f4 [1, 6]
0	0x4121cf95	10.113179
1	0x4120d93c	10.053036
2	0x411f87c1	9.970643
3	0x41229b9b	10.16299
4	0x4120c78a	10.048716
5	0x41224238	10.141167

module_list.0.global_offset f4 [1, 6]
0	0xbd2b3c44	-0.04180552
1	0xbc97d08b	-0.018532058
2	0xbd97dba5	-0.07414941
3	0xbd54ff73	-0.052001428
4	0xbd85db34	-0.0653595
5	0xbd10c824	-0.03534712

module_list.0.w_perm f4 [6, 6]
0	0x00000000	0.0
1	0x00000000	0.0
2	0x00000000	0.0
3	0x00000000	0.0
4	0x00000000	0.0
5	0x3f800000	1.0
6	0x00000000	0.0
7	0x00000000	0.0
8	0x00000000	0.0
9	0x00000000	0.0
10	0x3f800000	1.0
11	0x00000000	0.0
12	0x00000000	0.0
13	0x00000000	0.0
14	0x3f800000	1.0
15	0x00000000	0.0
16	0x00000000	0.0
17	0x00000000	0.0
18	0x3f800000	1.0
19	0x00000000	0.0
20	0x00000000	0.0
21	0x00000000	0.0
22	0x00000000	0.0
23	0x00000000	0.0
24	0x00000000	0.0
25	0x00000000	0.0
26	0x00000000	0.0
27	0x3f800000	1.0
28	0x00000000	0.0
29	0x00000000	0.0
30	0x00000000	0.0
31	0x3f800000	1.0
32	0x00000000	0.0
33	0x00000000	0.0
34	0x00000000	0.0
35	0x00000000	0.0

module_list.0.w_perm_inv f4 [6, 6]
0	0x00000000	0.0
1	0x00000000	0.0
2	0x00000000	0.0
3	0x3f800000	1.0
4	0x00000000	0.0
5	0x00000000	0.0
6	0x00000000	0.0
7	0x00000000	0.0
8	0x00000000	0.0
9	0x00000000	0.0
10	0x00000000	0.0
11	0x3f800000	1.0
12	0x00000000	0.0
13	0x00000000	0.0
14	0x3f800000	1.0
15	0x00000000	0.0
16	0x00000000	0.0
17	0x00000000	0.0
18	0x00000000	0.0
19	0x00000000	0.0
20	0x00000000	0.0
21	0x00000000	0.0
22	0x3f800000	1.0
23	0x00000000	0.0
24	0x00000000	0.0
25	0x3f800000	1.0
26	0x00000000	0.0
27	0x00000000	0.0
28	0x00000000	0.0
29	0x00000000	0.0
30	0x3f800000	1.0
31	0x00000000	0.0
32	0x00000000	0.0
33	0x00000000	0.0
34	0x00000000	0.0
35	0x00000000	0.0

module_list.0.subnet.0.weight f4 [256, 9]
0	0x3e666bcd	0.2250206
1	0xbe989c97	-0.2980697
2	0x3da430f6	0.08017151
3	0x3d1ad9ee	0.03780549
4	0x3e80493f	0.25055882
5	0xba5e2b96	-0.0008475123
6	0xbe9cd462	-0.30630785
7	0x3ec664b3	0.38748702
8	0x3cb7308c	0.022362016
9	0xbd100d7d	-0.035169113
10	0xbea518b5	-0.32245412
11	0x3e94316d	0.2894396
12	0x3d569380	0.05238676
13	0xbe295436	-0.1653603
14	0x3e46b115	0.19403489
15	0x3d140249	0.03613499
16	0xbe9bba88	-0.3041575
17	0xbed97077	-0.42468616
18	0xbd37c1c3	-0.04486252
19	0xbe508668	-0.20363772
20	0x3e8276d1	0.25481275
21	0xbe067dca	-0.13133922
22	0xbc875347	-0.016519202
23	0xbb5b953a	-0.0033505694
24	0x3eda061a	0.4258278
25	0x3d3e66c7	0.046484735
26	0xbddb069c	-0.1069462
27	0x3e9d3120	0.30701542
28	0xbe4a32d6	-0.19745955
29	0xbe289480	-0.16462898
30	0x3c89fef1	0.016845198
31	0xbe3ebd78	-0.18626964
32	0xbc0dd874	-0.0086575635
33	0x3ef5cd0b	0.48007998
34	0x3ec15228	0.37757993
35	0xbdbad5bd	-0.091227986
36	0x3c0c2a11	0.008554951
37	0x3e25d6b8	0.1619519
38	0xbd78f618	-0.06078157
39	0xbcab2979	-0.0208938
40	0x3e94f765	0.29094997
41	0x3c962fa3	0.018333262
42	0xbe6483a0	-0.22315836
43	0x3e6ab63e	0.22921082
44	0xbe8f9738	-0.28045058
45	0xbf432ce8	-0.76240396
46	0x3ec996b8	0.39372802
47	0xbf042cfd	-0.51631147
48	0xbf43d16c	-0.7649143
49	0xbe1ea135	-0.15491183
50	0x3ea616f6	0.32439393
51	0xbe84b993	-0.25922832
52	0x3e0ec08f	0.13940643
53	0x3d0f7550	0.035023987
54	0xbd7fbe65	-0.062437434
55	0xbd124cc2	-0.035717733
56	0xbca15247	-0.019692553
57	0x3cf48cf6	0.029852372
58	0x3ccf9abb	0.025342336
59	0x3e9aa1a2	0.3020144
60	0xbe603ac2	-0.21897414
61	0x3ebd144a	0.36929542
62	0x3e9c4e16	0.30528325
63	0x3e2fa137	0.17151342
64	0x3e93f0ad	0.2889456
65	0xbe38a05b	-0.18029921
66	0x3e4ac573	0.19801883
67	0xbe48dac5	-0.19614704
68	0xbcaffbbe	-0.021482345
69	0xbe3efc4a	-0.18650928
70	0x3eb13b6a	0.34615642
71	0x3e88d89b	0.26727757
72	0xbd4a24ff	-0.04935169
73	0x3e2474de	0.16060206
74	0x3ee103e4	0.4394828
75	0xbd52ab63	-0.05143298
76	0xbe94f98e	-0.29096645
77	0x3eb28d7e	0.34873575
78	0xbec89750	-0.39177942
79	0xbd605d3a	-0.054776408
80	0x3e60edee	0.21965763
81	0xbcd5104d	-0.02600875
82	0xbdd2183d	-0.10258529
83	0xbe09b7ff	-0.13449095
84	0x3d5dcc34	0.05414982
85	0x3e08e998	0.13370359
86	0x3e88038f	0.26565215
87	0xbd844968	-0.06459314
88	0x3e457958	0.1928457
89	0xbcb3f3b4	-0.021966793
90	0xbe4a68e0	-0.19766569
91	0xbe9881df	-0.29786584
92	0xbe224867	-0.15847932
93	0xbd9b7922	-0.075914636
94	0x3e6e0543	0.23244195
95	0x3e97cbd1	0.29647687
96	0xbdd0dbb8	-0.10198158
97	0xbdb62433	-0.08893623
98	0xbd83272c	-0.06403956
99	0x3e9b2555	0.3030192
100	0xbe5f004e	-0.2177746
101	0xbe94af0b	-0.29039797
102	0x3eba165f	0.36345193
103	0x3c550729	0.013002195
104	0xbc983242	-0.018578652
105	0x3e973696	0.29533833
106	0xbed2dedc	-0.41185653
107	0x3c4d82e8	0.0125434175
108	0xbdb029ab	-0.086016975
109	0xbe84da46	-0.2594778
110	0x3d41e482	0.047337063
111	0xbe584278	-0.21119106
112	0x3d84e98d	0.06489859
113	0x3e8402f3	0.257835
114	0x3e1d23e8	0.15345728
115	0x3ed85edd	0.42259875
116	0x3ddd7205	0.10812763
117	0x3d94964a	0.07255228
118	0xbca7c3b3	-0.020479059
119	0xbe1f157f	-0.15535544
120	0xbcb79fe7	-0.022415115
121	0x3c9ed8dc	0.019390516
122	0xbe50790a	-0.20358673
123	0x3ef23869	0.47308663
124	0x3e6ca23e	0.23108765
125	0x3e918fb5	0.28429952
126	0x3e0589c1	0.1304083
127	0x3d3f8084	0.04675342
128	0x3e1c3c46	0.15257367
129	0x3ea14900	0.31501007
130	0x3e29c81b	0.1658024
131	0xbe64bce7	-0.22337686
132	0xbe90a135	-0.2824799
133	0x3ecee222	0.404069
134	0x3e279f37	0.1636933
135	0x3e9d2933	0.30695495
136	0xbe594917	-0.21219288
137	0x3e96613f	0.29371068
138	0x3e653dc5	0.22386844
139	0x3dccbaba	0.09996553
140	0xbd97319b	-0.07382508
141	0xbea85a8a	-0.32881576
142	0x3ee65337	0.44985363
143	0xbe02e4eb	-0.12782638
144	0x3d4dc380	0.05023527
145	0x3d03f4dc	0.032215938
146	0x3df4aec7	0.11947399
147	0x3d96bfb9	0.07360787
148	0x3e4d8ce3	0.20073275
149	0x3cc09602	0.02350903
150	0xbe4b91f4	-0.19879895
151	0x3e6cda07	0.23130046
152	0x3e04886a	0.12942663
153	0x3e09943f	0.13435458
154	0x3e6037a3	0.21896224
155	0xbe93189b	-0.2872971
156	0x3e0e7e25	0.13915308
157	0x3e444512	0.19166973
158	0xbdc37465	-0.09543685
159	0xbee2de76	-0.4431035
160	0x3db13b5c	0.086539
161	0xbde7bd02	-0.11315347
162	0x3e42e386	0.19032106
163	0x3cda72f4	0.026666142
164	0x3e7ef7f7	0.24899279
165	0xbde2960f	-0.11063778
166	0xbc7f6922	-0.01558903
167	0xbe4b7009	-0.19866957
168	0x3ec7a0dd	0.38989916
169	0x3b26c488	0.0025446732
170	0xbd9f59c3	-0.077807926
171	0xbd850663	-0.06495359
172	0x3e78f83c	0.24313444
173	0xbec4b1dc	-0.38416946
174	0xbd55f574	-0.052236035
175	0x3ec3f0f4	0.3826977
176	0x3ea31b4f	0.31856772
177	0xbe53808a	-0.20654503
178	0x3ea8e84b	0.32989725
179	0xbe00b50d	-0.12569065
180	0xbb85e5a1	-0.004086212
181	0xbeaaa6d8	-0.33330417
182	0xbe3536ff	-0.1769676
183	0xbdc33abf	-0.09532689
184	0x3d267ad7	0.040644493
185	0x3e68f8a1	0.22751094
186	0xbe3cdea0	-0.184443
187	0xbe69987d	-0.22812076
188	0x3f0f66e0	0.5601635
189	0x3e730958	0.23734033
190	0xbe3c1976	-0.18369088
191	0xbcb5fd6a	-0.022215564
192	0x3e42cfaf	0.19024538
193	0xbe6ce21c	-0.23133129
194	0x3e481804	0.19540411
195	0xbe72e847	-0.2372142
196	0x3ed816e0	0.42204952
197	0x3daef038	0.08541912
198	0xbe6ee1fe	-0.23328397
199	0x3e0d0a06	0.13773355
200	0x3e5fb840	0.2184763
201	0x3c835e32	0.016036127
202	0x3e3d92e2	0.18513063
203	0xbecacace	-0.39607853
204	0x3d989182	0.074496284
205	0xbe0885ce	-0.13332292
206	0xbf47f4b8	-0.78107786
207	0x3e9d49bd	0.3072032
208	0xbe147454	-0.144975
209	0x3d50f862	0.051018126
210	0xbeae95e5	-0.34098735
211	0x3e3442f9	0.17603673
212	0xbdf3e259	-0.11908407
213	0x3dcaafef	0.09896838
214	0x3e0a2025	0.13488825
215	0xbf030c80	-0.5119095
216	0xbe952b3d	-0.2913455
217	0x3c1b71b8	0.009487562
218	0xbdbb3ac6	-0.091420695
219	0xbe1848cd	-0.14871521
220	0x3e6a8961	0.22903968
221	0x3e1212f4	0.14265043
222	0x3e34ee69	0.17669071
223	0xbe9a09ff	-0.3008575
224	0xbeb2e5ae	-0.34940857
225	0xbdb45295	-0.08804814
226	0xbe253df1	-0.1613691
227	0x3ca311cd	0.019905949
228	0xbe21ae4a	-0.15789142
229	0x3e2383eb	0.15968291
230	0x3d27ce9c	0.040968522
231	0xbc1239bd	-0.008924899
232	0x3e1d9cc5	0.15391834
233	0xbe398cb1	-0.18120076
234	0xbd442aa5	-0.04789223
235	0x3d5512f5	0.052020032
236	0x3da5b9ff	0.080921166
237	0x3d98bc48	0.07457787
238	0xbe20dcd2	-0.15709236
239	0x3e519207	0.20465861
240	0x3ebe4aef	0.37166545
241	0xbd894e31	-0.06704367
242	0xbe90c3d4	-0.28274405
243	0xbe6ea30b	-0.23304383
244	0xbce92591	-0.028460296
245	0x3e1b2bcf	0.1515343
246	0x3e88a9e0	0.26692104
247	0xbe9717cf	-0.29510352
248	0x3e1beafd	0.1522636
249	0x3ebdf0bb	0.37097725
250	0x3e93a582	0.2883721
251	0x3dfb93c1	0.12284041
252	0xbe7f4598	-0.24928892
253	0xbcfaf780	-0.030635595
254	0x3d6e3680	0.058157444
255	0x3e068d1a	0.13139763

module_list.0.subnet.0.bias f4 [256]
0	0x3c6c2783	0.014413717
1	0x3e63cdd1	0.22246481
2	0x3e496628	0.19667876
3	0x3e47fa2e	0.1952903
4	0xbd060217	-0.032716837
5	0x3b7b661f	0.003836043
6	0xbc6612bc	-0.014042553
7	0xbd5dfa02	-0.054193504
8	0xbef72385	-0.48269287
9	0xbe007e36	-0.12548146
10	0xbd429860	-0.047508597
11	0x3e7edd75	0.24889167
12	0xbde7438a	-0.11292179
13	0xbc83ba4e	-0.016080048
14	0xbe3b4a26	-0.18290004
15	0xbdc3db24	-0.09563282
16	0x3d835714	0.06413093
17	0x3dd885cb	0.10572394
18	0xbc9b523b	-0.018960109
19	0xbd406669	-0.046972666
20	0xbde81cbd	-0.113336064
21	0xbd3d72b2	-0.04625196
22	0x3eb78d5f	0.35850045
23	0x3d995cbe	0.07488392
24	0x3ef0dd0f	0.47043654
25	0x3e6e95b2	0.23299292
26	0x3e445463	0.19172816
27	0x3db9a965	0.090655126
28	0xbe8b473b	-0.27202782
29	0x3bd99eeb	0.006641259
30	0xbddb11a0	-0.10696721
31	0xbd07ebbd	-0.033183802
32	0xbb7650b1	-0.0037584717
33	0x3def09f8	0.11671823
34	0xbde33827	-0.110946946
35	0xbe98e8bd	-0.29865065
36	0x3e81d94e	0.25361103
37	0x3e13738b	0.14399545
38	0xbce73650	-0.02822414
39	0x3e51d297	0.2049049
40	0x3ead0537	0.3379304
41	0x3ea869f9	0.3289335
42	0x3e28b7e2	0.16476396
43	0x3bed5781	0.0072430973
44	0xbe8a32f7	-0.26992008
45	0x3d69a18c	0.05703883
46	0x3d55c267	0.05218735
47	0xbe83c7bf	-0.25738332
48	0x3e96977c	0.29412448
49	0xbe48cda0	-0.1960969
50	0xbe6fd104	-0.23419577
51	0xbea4d660	-0.32194805
52	0xbdf5cf06	-0.12002377
53	0xbd640c5d	-0.055675853
54	0x3e92c26e	0.28663963
55	0xbea4187e	-0.32049936
56	0x3ccbfdf3	0.024901366
57	0xbe8feebb	-0.28111824
58	0x3c4a96e1	0.012365074
59	0x3e48b370	0.195997
60	0xbe95ccd2	-0.29257828
61	0xbdab6426	-0.08368711
62	0xbdbd12b4	-0.09232083
63	0x3e677466	0.22602996
64	0xbea7a8cc	-0.3274597
65	0x3d9483db	0.07251712
66	0xbe614e39	-0.22002496
67	0x3e8378d9	0.25678137
68	0xbe56d3b6	-0.20979199
69	0xbb5f6c09	-0.0034091494
70	0x3b9014fb	0.0043970323
71	0x3e202234	0.15638047
72	0xbe140a6d	-0.14457102
73	0x3e3f85fa	0.18703452
74	0x3cb8acc0	0.022543311
75	0x3dc4fc51	0.09618438
76	0xbe3e6820	-0.18594408
77	0xbe72058d	-0.2363493
78	0xbe1ef589	-0.15523352
79	0xbe7914d8	-0.24324358
80	0x3e8f881e	0.28033537
81	0xbe1bfaa6	-0.15232334
82	0xbe2aee7f	-0.16692542
83	0x3c90c219	0.017670678
84	0x3cbc5abe	0.022992488
85	0x3e48be4d	0.19603844
86	0xbe3cd070	-0.18438888
87	0x3d766dfc	0.060163483
88	0xbe767b55	-0.24070485
89	0x3e861e11	0.26194814
90	0xbd45454d	-0.048161794
91	0xbe554b36	-0.20829472
92	0xbc7c26e3	-0.015390131
93	0x3c8819dc	0.016613893
94	0x3e80c962	0.25153643
95	0xbbf76f24	-0.007551091
96	0xbe983ab6	-0.29732293
97	0x3ec6889b	0.38776097
98	0x3e54aa41	0.20768072
99	0x3e402835	0.18765338
100	0x3d0bc9ef	0.034128126
101	0xbce48fc6	-0.027900588
102	0x3ea5f862	0.32416064
103	0xbcfd6338	-0.0309311
104	0x3d76e99c	0.06028138
105	0xbe7dc2dc	-0.24781364
106	0xbdcd2101	-0.100160606
107	0x3e9aab51	0.3020883
108	0xbe58c7b8	-0.21169937
109	0xbe9ec546	-0.31009883
110	0x3ea169dd	0.3152608
111	0xbe80f69c	-0.25188148
112	0x3d91a7a8	0.07112056
113	0x3de40af8	0.111349046
114	0xbea25de3	-0.31712255
115	0xbe79c56e	-0.2439172
116	0x3d7c276a	0.061561026
117	0x3def8664	0.11695555
118	0xbd5a9910	-0.053368628
119	0x3e952a9c	0.2913407
120	0xbd3bfdb8	-0.045896262
121	0x3d0d43ea	0.034488596
122	0xbe10b1da	-0.14130345
123	0xbe2b4070	-0.167238
124	0xbe4e24e3	-0.20131259
125	0xbe0cdf23	-0.13756995
126	0xbe197a8f	-0.14988159
127	0xbe9851dd	-0.29749957
128	0xbdcf2c03	-0.101158164
129	0x3bff0054	0.0077820215
130	0x3eacfd86	0.33787173
131	0x3de52429	0.111885376
132	0x3e514493	0.20436315
133	0x3dc2e9bc	0.095172375
134	0x3e80a8cd	0.25128785
135	0x3d7d5366	0.061847113
136	0xbe2a6665	-0.16640623
137	0xbe978d1c	-0.29599845
138	0x3e63e278	0.2225436
139	0x3e5995a4	0.2124849
140	0xbd9d5c03	-0.076835655
141	0x3e60e00f	0.21960472
142	0xbc4c008e	-0.012451304
143	0xbd2c8e59	-0.04212794
144	0x3e8b44ac	0.2720083
145	0x3d6eaf53	0.05827267
146	0x3e5e9d05	0.21739586
147	0xbe92aa68	-0.28645635
148	0xbe41e32c	-0.18934315
149	0x3da63a3b	0.08116575
150	0x3e53fe03	0.20702367
151	0xbdcb628a	-0.09930904
152	0x3e1933c9	0.1496116
153	0xbebf1c35	-0.37326208
154	0x3e6b239b	0.22962801
155	0x3e74224e	0.23841211
156	0x3e0f146b	0.13972633
157	0xbe2ebbb3	-0.17063789
158	0xbe9608bf	-0.29303548
159	0x3e2a0435	0.16603167
160	0x3eb27c5c	0.34860504
161	0x3aba007c	0.0014190818
162	0xbe8a8d14	-0.2706076
163	0xbdea6af7	-0.11446183
164	0x3d45e62f	0.048315223
165	0xbe3c810e	-0.18408605
166	0x3dd7cd27	0.105371766
167	0x3e5adab5	0.21372493
168	0x3e29f1b4	0.16596109
169	0x3e36cc04	0.17851263
170	0xbe16a54a	-0.1471149
171	0xba172803	-0.0005766155
172	0x3d815550	0.063151
173	0xbe0c3429	-0.13691773
174	0xbd624618	-0.055242628
175	0x3e2b961e	0.16756484
176	0x3e9d70a9	0.30750015
177	0x3e9bc2a3	0.30421934
178	0xbea99108	-0.33118463
179	0xbce80ddf	-0.028326927
180	0xbe4d3b49	-0.20042147
181	0x3da195ca	0.07889898
182	0xbdbe7a16	-0.0930063
183	0x3e730038	0.23730552
184	0xbe0ed125	-0.1394697
185	0x3dd13980	0.102160454
186	0xbd899f84	-0.06719878
187	0x3d883c9d	0.06652186
188	0x3eefd7d5	0.46844354
189	0x3e4ab91e	0.19797179
190	0x3e8a9e62	0.27073961
191	0xbe3aee09	-0.18254866
192	0xbe3f0912	-0.18655804
193	0x3bef7470	0.0073075816
194	0x3dd9c321	0.10632921
195	0xbdb39526	-0.08768682
196	0xbe798505	-0.24367149
197	0xbe8195aa	-0.25309497
198	0x3d34dafb	0.04415415
199	0x3e3d1aaa	0.18467203
200	0x3e792f2f	0.24334405
201	0x3d478d3b	0.048718672
202	0x3e2f6fb8	0.17132461
203	0x3e8e55af	0.27799746
204	0x3dbea4ba	0.09308763
205	0x3e0e6bf5	0.1390837
206	0xbe79cef8	-0.24395359
207	0x3e052769	0.13003315
208	0x3dacd845	0.08439688
209	0x3d8c1def	0.06841647
210	0x3e28becf	0.16479038
211	0x3e1e6f18	0.15472066
212	0xbbfbced0	-0.007684566
213	0xbda03614	-0.078228146
214	0x3e9d1b6d	0.30684987
215	0x3e70203d	0.23449798
216	0xbc57aa5d	-0.013163176
217	0xbc16fefe	-0.009216068
218	0x3e586937	0.21133886
219	0xbe45ef02	-0.19329455
220	0xbdf0d37f	-0.1175909
221	0x3e264d3e	0.16240403
222	0x3ea589c2	0.32331663
223	0xbd344cfe	-0.044018738
224	0x3e17adcf	0.14812396
225	0x3e4e29d8	0.2013315
226	0x3deddafa	0.11614032
227	0x3e95a462	0.29226977
228	0x3e83d194	0.25745833
229	0x3df621c8	0.12018162
230	0x3e9a9adf	0.30196282
231	0xbe66bac0	-0.22532177
232	0x3b2a78d0	0.0026011951
233	0xbe8d8ded	-0.27647343
234	0xbd504e5f	-0.05085599
235	0x3e104e2f	0.14092325
236	0xbea21897	-0.31659386
237	0xbd7a9fe2	-0.061187632
238	0x3e754630	0.23952556
239	0x3e4a1d93	0.19737844
240	0x3cc0d2df	0.023538051
241	0xbe86ab85	-0.26302734
242	0x3ea6546d	0.32486287
243	0x3d3af474	0.045643285
244	0xbe1ad177	-0.15118967
245	0xbc464c8b	-0.01210321
246	0x3e57c54f	0.21071361
247	0x3e92863f	0.28618047
248	0xbe909bb8	-0.28243804
249	0x3dd5011d	0.10400603
250	0xbe0b3543	-0.13594536
251	0x3e801292	0.25014168
252	0xbe129c8d	-0.14317532
253	0xbe0d3b7e	-0.13792226
254	0xbd44613f	-0.047944304
255	0xbd6a1391	-0.057147566

module_list.0.subnet.2.weight f4 [6, 256]
0	0x3d852e9d	0.065030314
1	0xbca70bde	-0.0203914
2	0xbda819b5	-0.08208028
3	0xbd1172d3	-0.035509896
4	0x3d675452	0.0564769
5	0x3d034ce0	0.032055736
6	0x3da3fbd8	0.0800702
7	0x3b5d4196	0.0033761016
8	0x3e334a06	0.17508706
9	0x3d96ca6e	0.07362829
10	0x3c4ee2a9	0.012627282
11	0xbc569d5f	-0.013099044
12	0xbd5c4be7	-0.053783324
13	0xbdef707b	-0.11691376
14	0xbcda1339	-0.026620494
15	0x3dabe585	0.08393387
16	0x3cc55212	0.024086986
17	0xbe141f4e	-0.14465067
18	0xbb893c72	-0.004188114
19	0x3d775a98	0.06038913
20	0xbeaaa8a3	-0.33331785
21	0x3df84cb9	0.12124009
22	0x3d3b0c04	0.045665756
23	0x3dd2af7b	0.102873765
24	0xbd026821	-0.031837586
25	0x3c65825d	0.014008132
26	0x3d19576d	0.03743689
27	0x3d3c562c	0.045980617
28	0xbd062372	-0.032748647
29	0x3dab3c49	0.08361108
30	0xbec9ce2b	-0.39415106
31	0x3af05660	0.0018336289
32	0x3d867d64	0.06566885
33	0x3d5ccf64	0.05390872
34	0xbd6cf4e8	-0.05785075
35	0xbe15d538	-0.14632118
36	0x3ca882c5	0.020570168
37	0x3d0a3203	0.0337391
38	0xbcb0ee3a	-0.02159797
39	0x3a2b452a	0.00065334386
40	0xbc27d05b	-0.010242547
41	0x3d8e403a	0.06945844
42	0xbc731b7a	-0.014838094
43	0xbd7c47a5	-0.061591763
44	0xbd77c59e	-0.060491197
45	0xbd02e908	-0.031960517
46	0xbe67dcbf	-0.22642802
47	0x3a14dc36	0.0005678566
48	0x3d61a66a	0.055090345
49	0x3d7bcebc	0.061476454
50	0xbba7f767	-0.005125928
51	0x3d02af42	0.03190542
52	0x3ca4229a	0.02003603
53	0xbd71d28e	-0.05903869
54	0x3cf13c14	0.029447593
55	0x3e4ad838	0.19809043
56	0xbf60c37f	-0.87798303
57	0x3d636f20	0.0555259
58	0xbda1cc9b	-0.079003535
59	0x3d2d5299	0.0423151
60	0x3cc74598	0.024325177
61	0xbd6d7820	-0.05797589
62	0x3ce75dc0	0.028242946
63	0xbd1d6e85	-0.038435478
64	0x3d8aa861	0.06770397
65	0x3cf31fd9	0.029678272
66	0xbcf3ff6d	-0.029784882
67	0x3d145e0d	0.036222506
68	0x3d8e581e	0.06950401
69	0xbc547bdf	-0.012968986
70	0xbd591e1a	-0.053007223
71	0x3d6658bd	0.05623697
72	0x3b9b7162	0.004743741
73	0x3c3ba074	0.011451829
74	0xbc9b5ff4	-0.018966652
75	0xbd030f54	-0.03199704
76	0xbbfc1e6c	-0.0076940563
77	0xbdbdc7a0	-0.09266591
78	0xbc71b1ea	-0.014751891
79	0x3d60c2de	0.05487334
80	0xbd09fb92	-0.03368718
81	0x3c929168	0.0178916
82	0xbe0a2a09	-0.13492598
83	0xbf0c59c3	-0.54824466
84	0x3d9f97ae	0.077926025
85	0x3d174654	0.036932305
86	0xbca4b730	-0.020106882
87	0xbcd377bd	-0.025813932
88	0xbd59fc97	-0.053219404
89	0x3dad9c78	0.0847711
90	0x3cd292f5	0.02570484
91	0x3d541520	0.05177796
92	0x3cd59a5f	0.026074586
93	0xbc3f4260	-0.01167354
94	0x3dcf22b0	0.10114038
95	0x3c5c4ef4	0.013446558
96	0xbe440896	-0.191439
97	0x3d866cc0	0.06563711
98	0x3d4487ce	0.047981076
99	0xbdd41550	-0.103556275
100	0x3be016f3	0.0068386733
101	0x3d6b9127	0.057511475
102	0x3c65bf3b	0.014022644
103	0xbbd0beb6	-0.0063703908
104	0x3d69e156	0.057099663
105	0x3f58271a	0.84434664
106	0x3d10118a	0.035172977
107	0x3dd0b9b5	0.10191671
108	0xbd0b5a36	-0.03402158
109	0xbd89c44f	-0.06726896
110	0x3e53a45d	0.20668168
111	0xbba31569	-0.0049769175
112	0x3d88ff15	0.06689278
113	0x3e8f4ded	0.2798914
114	0xbce2a9e4	-0.0276689
115	0x3c4d0563	0.012513491
116	0x3c8ee598	0.017443463
117	0x3d99a43c	0.07502028
118	0xbc072b21	-0.008250029
119	0x3dc60bdd	0.096702315
120	0x3cdcd0d8	0.026955053
121	0xbc00b0ce	-0.0078546535
122	0x3cb83ecc	0.022490881
123	0xbdd4c620	-0.10389352
124	0x3d42f424	0.047596112
125	0x3b06f82b	0.0020594697
126	0x3d95b084	0.07309058
127	0x3f42f486	0.76154363
128	0x3d6dd7c6	0.058067106
129	0x3cd465e9	0.0259275
130	0x3ca9ccf3	0.02072761
131	0x3c82592a	0.015911657
132	0xbcb9e4d1	-0.022692116
133	0x3d2f328a	0.042772807
134	0xbd05ef63	-0.032699
135	0xbc6299be	-0.0138306
136	0x3d8e0cc5	0.06936029
137	0xbc56fd7f	-0.013121962
138	0x3c46f20f	0.012142672
139	0xbdb61e9b	-0.08892556
140	0xbe005633	-0.12532882
141	0x3dcb2515	0.09919182
142	0x3e7fc1a4	0.24976212
143	0xbe530023	-0.20605521
144	0xbd364fee	-0.04450982
145	0x3bdbd219	0.006708395
146	0xbed98e46	-0.4249136
147	0xba0b8d00	-0.000532344
148	0xbce253db	-0.027627876
149	0x3d189421	0.03725064
150	0x3d9e605c	0.07733223
151	0xbd891b90	-0.0669471
152	0x3b6c2a86	0.0036036088
153	0xbd588edf	-0.052870627
154	0xbb5e000c	-0.003387454
155	0xbcfe1301	-0.031014921
156	0x3be3dcab	0.006953796
157	0xbd52f633	-0.051504325
158	0x3caf7f5b	0.021423033
159	0x3d8eb63e	0.06968354
160	0x3c00a5f7	0.007852069
161	0xbe064f7a	-0.13116255
162	0xbd0a4071	-0.033752862
163	0x3da6b706	0.08140378
164	0x3d7360ca	0.059418477
165	0x3bd58bb0	0.006516896
166	0x3b83619f	0.00400944
167	0x3bce4389	0.006294672
168	0x3f11d475	0.5696481
169	0x3d4eb62e	0.05046671
170	0x3caccb29	0.021092968
171	0xbdb56add	-0.08858273
172	0x3d961ac4	0.07329324
173	0xbd2c52a1	-0.04207099
174	0x3ce5d6ec	0.028056584
175	0x3daf8067	0.08569413
176	0x3d7151e2	0.05891598
177	0x3dc0c21b	0.09412023
178	0x3d1fb6e6	0.038992785
179	0xbcfa28db	-0.03053706
180	0x3b3f3718	0.0029177126
181	0x3d82ce31	0.06386984
182	0x3d45698f	0.04819637
183	0x3c546955	0.012964566
184	0xbd5badc1	-0.0536325
185	0x3cd87958	0.026425049
186	0x3c44e413	0.012017268
187	0x3d55014f	0.0520032
188	0x3e3bffda	0.18359318
189	0xbbe9e99e	-0.007138445
190	0x3e95b21f	0.29237458
191	0xbd0eb73b	-0.03484271
192	0xbd932c56	-0.07186191
193	0xbf871c46	-1.0555503
194	0xbcbcf347	-0.023065222
195	0x3d647726	0.05577769
196	0xbcd86439	-0.026414977
197	0xbdf8c577	-0.121470384
198	0x3da2fe2a	0.07958634
199	0x3e8e84e7	0.2783577
200	0x3d6abc99	0.057308767
201	0x3d2d452e	0.042302303
202	0x3c12f00d	0.008968365
203	0xbd530710	-0.051520407
204	0x3d388860	0.045051932
205	0x3cc320a2	0.023819271
206	0xbcb57d58	-0.022154495
207	0xbeb618db	-0.35565838
208	0xbd3949cf	-0.045236405
209	0xbe802420	-0.2502756
210	0x3d34632a	0.044039883
211	0xbb753a4b	-0.0037418779
212	0xbc921b52	-0.017835293
213	0x3c61673f	0.013757526
214	0xbd1dbadc	-0.03850828
215	0x3db9d506	0.09073834
216	0x3bc311ae	0.0059530353
217	0xbd250602	-0.040288933
218	0x3c1082d2	0.0088202525
219	0x3e8326ac	0.25615442
220	0xbda10bd0	-0.07863581
221	0x3ca6e7ec	0.02037426
222	0xbda5f5a3	-0.08103492
223	0x3cc095f5	0.023509005
224	0x3bb4a857	0.0055132317
225	0x3efa44b9	0.48880556
226	0x3d9a90f2	0.075471774
227	0x3d262240	0.040560007
228	0x3d2a4b55	0.04157575
229	0x3b9ac873	0.0047236024
230	0x3d8d009a	0.0688488
231	0x3b864889	0.0040980023
232	0xbd687ce4	-0.05675973
233	0x3dd5afff	0.10433959
234	0xbf303f98	-0.68847036
235	0x3dcb25b2	0.09919299
236	0x3ca944b0	0.020662636
237	0x3c259a8d	0.010107649
238	0xbd384f6c	-0.044997618
239	0x3d7b9bd8	0.06142792
240	0x3d4fd91d	0.050744165
241	0x3c6479a9	0.013945022
242	0x3d96695b	0.07344314
243	0xbbcef93e	-0.006316333
244	0x3d4d7cc0	0.0501678
245	0x3b44e28d	0.0030042261
246	0x3d832d91	0.064051755
247	0x3e6a558c	0.22884196
248	0xbcaec431	-0.021333786
249	0xbd9afce8	-0.07567769
250	0xbd4ca87a	-0.04996536
251	0xbe92973b	-0.28631005
252	0xbe026944	-0.12735468
253	0x39adff00	0.0003318712
254	0xbdad4d2d	-0.08461986
255	0x3d2c073b	0.041999083

module_list.0.subnet.2.bias f4 [6]
0	0x3d7e51bb	0.062089663
1	0xbcfa4017	-0.030548139
2	0x3c8320a9	0.016006785
3	0xbd947177	-0.07248204
4	0xbdbac3dc	-0.091193885
5	0xbd2edc2e	-0.04269045

module_list.1.global_scale f4 [1, 6]
0	0x4122508c	10.144665
1	0x4120fc04	10.061527
2	0x41201a59	10.006433
3	0x4121b557	10.106772
4	0x412a7148	10.652657
5	0x4124d2d5	10.301473

module_list.1.global_offset f4 [1, 6]
0	0xbd0c84dd	-0.034306396
1	0xbd680208	-0.056642562
2	0xbd3244c7	-0.043522622
3	0xbcc20c43	-0.023687487
4	0xbcad884a	-0.021183152
5	0xbd29209c	-0.041290864

module_list.1.w_perm f4 [6, 6]
0	0x00000000	0.0
1	0x00000000	0.0
2	0x3f800000	1.0
3	0x00000000	0.0
4	0x00000000	0.0
5	0x00000000	0.0
6	0x00000000	0.0
7	0x00000000	0.0
8	0x00000000	0.0
9	0x00000000	0.0
10	0x00000000	0.0
11	0x3f800000	1.0
12	0x00000000	0.0
13	0x3f800000	1.0
14	0x00000000	0.0
15	0x00000000	0.0
16	0x00000000	0.0
17	0x00000000	0.0
18	0x00000000	0.0
19	0x00000000	0.0
20	0x00000000	0.0
21	0x3f800000	1.0
22	0x00000000	0.0
23	0x00000000	0.0
24	0x00000000	0.0
25	0x00000000	0.0
26	0x00000000	0.0
27	0x00000000	0.0
28	0x3f800000	1.0
29	0x00000000	0.0
30	0x3f800000	1.0
31	0x00000000	0.0
32	0x00000000	0.0
33	0x00000000	0.0
34	0x00000000	0.0
35	0x00000000	0.0

module_list.1.w_perm_inv f4 [6, 6]
0	0x00000000	0.0
1	0x00000000	0.0
2	0x00000000	0.0
3	0x00000000	0.0
4	0x00000000	0.0
5	0x3f800000	1.0
6	0x00000000	0.0
7	0x00000000	0.0
8	0x3f800000	1.0
9	0x00000000	0.0
10	0x00000000	0.0
11	0x00000000	0.0
12	0x3f800000	1.0
13	0x00000000	0.0
14	0x00000000	0.0
15	0x00000000	0.0
16	0x00000000	0.0
17	0x00000000	0.0
18	0x00000000	0.0
19	0x00000000	0.0
20	0x00000000	0.0
21	0x3f800000	1.0
22	0x00000000	0.0
23	0x00000000	0.0
24	0x00000000	0.0
25	0x00000000	0.0
26	0x00000000	0.0
27	0x00000000	0.0
28	0x3f800000	1.0
29	0x00000000	0.0
30	0x00000000	0.0
31	0x3f800000	1.0
32	0x00000000	0.0
33	0x00000000	0.0
34	0x00000000	0.0
35	0x00000000	0.0

module_list.1.subnet.0.weight f4 [256, 9]
0	0xbe1804e5	-0.14845617
1	0xbc997e1c	-0.018736891
2	0xbe5d5a31	-0.21616437
3	0x3e8acb61	0.2710829
4	0x3ec6e419	0.388459
5	0x3e41dd4d	0.18932076
6	0xbe58eaf3	-0.21183376
7	0xbd1186cf	-0.035528954
8	0x3e2cfb1e	0.16892669
9	0xbea3a3c2	-0.31960875
10	0x3d39fc6f	0.045406755
11	0xbdb309e7	-0.08742123
12	0xbd0191f4	-0.031633332
13	0x3da7e749	0.08198411
14	0x3c8e2281	0.017350437
15	0x3ba3116b	0.0049764416
16	0xbbe499ab	-0.0069763265
17	0x3d1bc6b5	0.0380313
18	0xbe22d019	-0.15899695
19	0xbe685a08	-0.22690594
20	0x3e4e26fa	0.20132056
21	0xbd8d611f	-0.0690329
22	0x3ed250be	0.41077226
23	0xbc88c860	-0.016697109
24	0xbd145c92	-0.036221094
25	0x3db5750f	0.08860218
26	0xbe17dde5	-0.1483074
27	0xbe19fbfe	-0.15037534
28	0x3ec45148	0.38343263
29	0xbe397841	-0.1811228
30	0x3ec4662d	0.38359204
31	0x3e3e8954	0.18607074
32	0xbe25ec89	-0.16203512
33	0x3e0dfaba	0.13865176
34	0x3ec660c1	0.38745692
35	0x3d5a9693	0.053366255
36	0x3d48b4d6	0.049000584
37	0xbcdbcd2b	-0.02683123
38	0x3e1deecc	0.15423125
39	0x3c4d57bd	0.0125331255
40	0x3ae9e45a	0.0017844543
41	0xbd17d30c	-0.037066504
42	0xbde100fe	-0.10986517
43	0xbcfae81f	-0.030628262
44	0x3dd6ad50	0.104822755
45	0x3ea88729	0.3291562
46	0x3dcd02fd	0.100103356
47	0xbd500711	-0.05078799
48	0xbe405d80	-0.18785667
49	0x3e639842	0.2222605
50	0x3e17c8f7	0.14822756
51	0x3e75eb78	0.24015605
52	0xbe47d471	-0.19514634
53	0xbddf7b1a	-0.10912152
54	0xbe24e31a	-0.16102257
55	0xbc9580a6	-0.01824982
56	0x3cd5f088	0.02611567
57	0x3e2f6568	0.17128527
58	0xbea15dcd	-0.31516877
59	0x3db67c62	0.08910443
60	0x3e380f47	0.17974578
61	0xbdfc1099	-0.12307853
62	0x3ea062ba	0.31325322
63	0x3dbb3c5d	0.09142373
64	0x3e89b799	0.26897886
65	0x3e3e443e	0.1858072
66	0xbe977323	-0.2958003
67	0x3ea48163	0.32129964
68	0x3e27b737	0.16378485
69	0xbd0638a6	-0.032768868
70	0xbe5ff611	-0.2187121
71	0xbdb97be9	-0.09056837
72	0x3e80a70d	0.2512745
73	0x3ecd627c	0.401142
74	0xbd3c7c0f	-0.04601675
75	0x3d696e40	0.05698991
76	0xbedcdba5	-0.43136325
77	0xbe2d069d	-0.16897054
78	0xbec95e21	-0.39329627
79	0x3f09dfb1	0.5385695
80	0xbe528e98	-0.20562208
81	0x3c7de0c1	0.01549548
82	0xbe14a854	-0.14517337
83	0x3d979311	0.074010976
84	0x3e6f6b38	0.23380744
85	0x3ebf52ed	0.37367955
86	0xbdf1be0f	-0.11803829
87	0x3e5f1f9f	0.21789406
88	0x3e20cb9c	0.15702671
89	0x3e4496d4	0.19198161
90	0xbd849168	-0.064730465
91	0xbd6769ca	-0.056497373
92	0xbe767eae	-0.24071762
93	0x3e8ed760	0.27898693
94	0x3eb30dea	0.34971553
95	0x3db48c1a	0.08815785
96	0x3e36ba59	0.17844523
97	0x3e37fd85	0.17967804
98	0x3d40b36f	0.04704612
99	0x3edf2a65	0.43587032
100	0xbe7f7344	-0.24946314
101	0xbecf8181	-0.4052849
102	0x3d3678a8	0.04454866
103	0x3e411b79	0.18858136
104	0x3d251748	0.040305406
105	0xbe9f36b9	-0.31096438
106	0x3e1a8484	0.15089613
107	0x3ee02392	0.43777138
108	0x3df1d574	0.11808291
109	0x3d9353dc	0.07193729
110	0x3e8c2d05	0.27378097
111	0xbe7e2d3f	-0.24821948
112	0x3ea41a65	0.32051387
113	0x3d4bd3f9	0.0497627
114	0x3ec2a4e1	0.38016418
115	0x3e187a7b	0.14890473
116	0x3e2c720e	0.16840383
117	0x3d3bca06	0.04584696
118	0x3e5c681a	0.21524087
119	0xbd3d1c3a	-0.046169497
120	0xbe1da704	-0.15395743
121	0x3e43b5a6	0.19112262
122	0x3e96ea7f	0.2947578
123	0xbe6fb3dd	-0.23408456
124	0x3dd84e15	0.10561768
125	0xbd911ca5	-0.07085542
126	0x3d945abe	0.0724387
127	0xbe144a81	-0.14481546
128	0x3d9d3dbf	0.07677793
129	0x3e048bdd	0.12943979
130	0x3d9deac2	0.07710792
131	0xbe5d6dac	-0.21623868
132	0x3e635c93	0.22203283
133	0x3df76593	0.120799206
134	0x3d8e670d	0.06953249
135	0x3cd479ed	0.025937045
136	0x3daa879f	0.08326649
137	0xbe9290a9	-0.28625992
138	0x3e5c81db	0.21533911
139	0xbe822279	-0.25416926
140	0x3e46dcd7	0.19420181
141	0x3d24e669	0.0402588
142	0xbe01bb41	-0.12669088
143	0x3e519f21	0.20470859
144	0xbe931289	-0.2872508
145	0xbd420b3f	-0.047374006
146	0xbdfe31af	-0.1241182
147	0x3eccdc14	0.40011656
148	0x3e35f147	0.17767821
149	0xbe18abcd	-0.14909287
150	0x3ebeed01	0.37290195
151	0xbe866966	-0.26252288
152	0x3dbb64b8	0.0915007
153	0x3eb7353b	0.357828
154	0x3d7f2cb0	0.062298477
155	0xbe5be684	-0.21474653
156	0xbee65f55	-0.44994608
157	0xbec93160	-0.39295483
158	0xbd43d018	-0.047805876
159	0x3e41eecb	0.18938749
160	0x3ea5e90b	0.3240436
161	0xbdc48f4a	-0.09597643
162	0xbdd0f876	-0.1020364
163	0x3ecb1381	0.39663318
164	0x3de47ab1	0.11156214
165	0x3e3f400a	0.18676773
166	0xbd863736	-0.065534994
167	0xbdec75e2	-0.11545922
168	0x3f073fd0	0.52831745
169	0xbe41e8b9	-0.18936433
170	0x3e256fe1	0.1615596
171	0x3ea90f1c	0.3301934
172	0xbe03a00d	-0.12854023
173	0x3e85380a	0.26019317
174	0x3df2e7f4	0.11860648
175	0x3f05534a	0.52080214
176	0xbdfed61a	-0.124431804
177	0x3e044179	0.12915601
178	0x3dbf0f27	0.09329062
179	0xbd8c1bb7	-0.06841224
180	0xbe5ef951	-0.21774794
181	0x3baa4197	0.005195807
182	0x3e14700b	0.14495866
183	0xbd96b0be	-0.0735793
184	0xbde7176f	-0.112837665
185	0xbe89438b	-0.26809344
186	0x3e9d5b25	0.307336
187	0x3e1c731a	0.15278283
188	0x3e40093d	0.18753524
189	0x3e838111	0.25684407
190	0xbccdb1c9	-0.025109189
191	0x3ec444f4	0.38333857
192	0xbe378a42	-0.17923835
193	0x3e4c7d32	0.19969633
194	0x3dd9d9f5	0.10637275
195	0x3e9047a2	0.28179651
196	0x3d964c52	0.07338776
197	0x3e5823e7	0.21107446
198	0xbc9c4ea2	-0.019080464
199	0x3d1f3c8c	0.0388761
200	0xbdee2c73	-0.11629572
201	0xbe511394	-0.20417625
202	0xbd8b2029	-0.067932434
203	0x3e8de1f4	0.2771145
204	0x3e83724d	0.25673142
205	0xbe3e5b28	-0.18589461
206	0x3df42c1f	0.11922478
207	0x3dfb8e89	0.12283046
208	0x3ddd4fb5	0.108062185
209	0x3e32d9ea	0.1746594
210	0xbe2f385c	-0.17111343
211	0xbe8b8eae	-0.27257293
212	0x3dbe09b4	0.092791945
213	0x3e8c86b7	0.2744653
214	0x3e8bbebd	0.2729396
215	0xbe0f25e6	-0.13979301
216	0x3e107bf0	0.14109778
217	0x3d0ba6a2	0.03409446
218	0x3e806339	0.250757
219	0xbe92d6c4	-0.28679478
220	0xbdfaea7e	-0.12251757
221	0xbe8925b4	-0.26786578
222	0xbe7ee1d9	-0.24890842
223	0x3e79f796	0.24410853
224	0xbcaa9ebe	-0.020827647
225	0x3dd2c8e8	0.10292226
226	0x3dfa3a11	0.122181065
227	0xbd52ad7c	-0.05143498
228	0x3e8f626f	0.28004786
229	0x3ebbff38	0.36718154
230	0xbdd6047f	-0.10450076
231	0xbe756a75	-0.23966391
232	0xbde31e29	-0.11089737
233	0x3ea79ee5	0.32738414
234	0xbdb9cc1b	-0.09072133
235	0x3e234810	0.15945458
236	0xbe900adf	-0.28133294
237	0x3ea731e3	0.32655248
238	0xbe191842	-0.1495066
239	0x3e317513	0.17329817
240	0x3e29f836	0.16598591
241	0x3e8efb80	0.27926254
242	0xbe85b273	-0.26112708
243	0x3d9a8b8c	0.07546148
244	0x3c81314c	0.015770577
245	0x3c635942	0.013876261
246	0xbe538d63	-0.20659404
247	0x3e5ac0d0	0.21362615
248	0x3b9cc6b7	0.004784431
249	0x3ea397b0	0.31951666
250	0xbc9d21f6	-0.019181233
251	0xbdfa876b	-0.1223286
252	0x3e998c63	0.2998992
253	0xbdd6a665	-0.10480956
254	0x3ee323e8	0.44363332
255	0x3e2a54c4	0.16633898

module_list.1.subnet.0.bias f4 [256]
0	0x3d2ffb35	0.04296418
1	0x3ad081db	0.001590784
2	0x3e4f4fe2	0.20245317
3	0xbe8424e8	-0.25809407
4	0x3de3c06c	0.11120686
5	0x3dd058a8	0.1017316
6	0x3e35af83	0.17742734
7	0x3e857bbf	0.26070973
8	0xbe52ad0c	-0.20573825
9	0xbe676681	-0.22597696
10	0xbd60194b	-0.05471162
11	0xbea5adf3	-0.32359275
12	0xbe6fc195	-0.2341369
13	0x3d0f3ec4	0.034971967
14	0xbd0d7195	-0.03453215
15	0x3e5b4a66	0.214151
16	0x3e9ee6f0	0.31035566
17	0x3db8d0e9	0.090242215
18	0xbddd5cd4	-0.10808721
19	0xbe43f9be	-0.19138238
20	0x3e26dc78	0.1629504
21	0xbeaf5da0	-0.34251118
22	0x3e7c839d	0.24659581
23	0x3e0bbbbf	0.13645838
24	0x3ec73e52	0.38914734
25	0xbd9f9898	-0.07792777
26	0xbdd76268	-0.105168164
27	0x3e0d3174	0.13788396
28	0x3dee8009	0.116455145
29	0xbe5516a0	-0.20809412
30	0x3e92b1f1	0.28651384
31	0x3e780901	0.24222185
32	0xbd782e03	-0.060590755
33	0xbe5e8fbe	-0.21734521
34	0x3e9579b3	0.29194412
35	0x3ece36fe	0.4027633
36	0xbe5619f8	-0.20908344
37	0x3e490b7e	0.1963329
38	0x3e429474	0.19001943
39	0xbeb561cf	-0.35426185
40	0x3e60602f	0.21911691
41	0x3e86a61c	0.26298606
42	0xbe98ab67	-0.2981827
43	0x3e90eb38	0.28304458
44	0x3e549a52	0.20761994
45	0x3ed19e24	0.40940964
46	0xbe432c2a	-0.19059816
47	0xbde2f2ff	-0.11081504
48	0xbe3c3e67	-0.1838318
49	0x3f068114	0.5254071
50	0xbe8a5eb6	-0.27025384
51	0x3e033eeb	0.1281697
52	0xbdb447dc	-0.088027686
53	0x3bf17d40	0.0073696673
54	0x3ea00524	0.31253922
55	0xbcf15bb7	-0.029462678
56	0xbe8744f3	-0.26419792
57	0x3ec48911	0.38385823
58	0x3e6122ee	0.21985981
59	0xbe1ae68a	-0.15127006
60	0x3eb21565	0.34781948
61	0x3edee1ee	0.43531746
62	0xbe285f60	-0.16442633
63	0xbe88415a	-0.2661236
64	0xbe73d004	-0.2380982
65	0x3e8b417d	0.271984
66	0xbc508754	-0.012727577
67	0x3e81f642	0.25383192
68	0x3d25d3b0	0.040485084
69	0x3ca76175	0.020432213
70	0x3ed72154	0.42017615
71	0xbd0df7ba	-0.03466008
72	0x3da2b266	0.07944183
73	0xbd33ea75	-0.043924768
74	0xbd7f1c40	-0.0622828
75	0xbe77d71f	-0.24203156
76	0x3e5767a3	0.21035628
77	0x3eabd45a	0.3356045
78	0x3eaa31da	0.3324116
79	0x3ec64ff4	0.38732874
80	0x3e958e9c	0.29210365
81	0xbdbfc2b6	-0.0936331
82	0x3dc6b3ad	0.09702239
83	0x3dac5f40	0.08416605
84	0x3e23ddb8	0.16002548
85	0xbe62561d	-0.22103162
86	0x3ae6235e	0.0017558148
87	0xbdbe3c23	-0.09288814
88	0x3ede4172	0.43409306
89	0xbde867b3	-0.11347904
90	0x3e8c29cf	0.27375647
91	0x3e88aaf0	0.26692915
92	0xbea1fbb2	-0.3163734
93	0xbdfeff66	-0.12451057
94	0xbd621ee5	-0.055205245
95	0xbbcbe063	-0.0062218173
96	0x3e833ab4	0.25630724
97	0x3d8916bd	0.0669379
98	0xbe729b53	-0.23692064
99	0x3deb5aa7	0.114919
100	0xbe08e2b6	-0.13367733
101	0x3e7cbea7	0.24682103
102	0xbea13f9d	-0.31493846
103	0x3e968f7e	0.2940635
104	0xbdabd170	-0.083895564
105	0x3e548df9	0.20757283
106	0xbeae8fa7	-0.34093973
107	0x3ec4897c	0.38386142
108	0x3d9f1421	0.07767511
109	0x3ebd4b77	0.36971638
110	0x3ee4d870	0.4469638
111	0xbdb9e79f	-0.09077381
112	0xbe4f6734	-0.20254213
113	0x3e0be5cd	0.13661881
114	0x3ebaf82e	0.3651747
115	0x3e7052c9	0.2346908
116	0xbe13c5d4	-0.14430934
117	0xbe651ff2	-0.22375467
118	0x3da3a3ec	0.0799025
119	0x3e89e428	0.26931882
120	0x3e28da28	0.1648947
121	0x3e66baf1	0.2253225
122	0x3e71599b	0.23569338
123	0x3e09b4a9	0.13447823
124	0xbe890daa	-0.26768237
125	0xbe60a4a3	-0.21937804
126	0xbe777428	-0.24165404
127	0x3d9cb028	0.07650787
128	0xbd0cff72	-0.0344233
129	0x3ebbd204	0.36683667
130	0x3e3e1524	0.18562752
131	0xbe0c28db	-0.1368746
132	0x3ed60d24	0.418069
133	0x3e86c978	0.26325583
134	0xbea25bdc	-0.31710708
135	0xbdc76229	-0.097355194
136	0xbe39274e	-0.180814
137	0xbd29360d	-0.041311312
138	0xbe537440	-0.20649815
139	0xbe0783ac	-0.13233823
140	0x3e900aa4	0.28133118
141	0xbea63aa5	-0.32466617
142	0x3d824311	0.06360448
143	0xbc6fb0fe	-0.014629601
144	0xbd1e25c2	-0.038610227
145	0xbdbf2ddf	-0.09334921
146	0x3e8615c4	0.2618848
147	0xbe3bc91f	-0.1833844
148	0xbcce33b0	-0.02517113
149	0x3dc353f4	0.09537497
150	0xbe81349c	-0.2523545
151	0x3e27ad47	0.16374694
152	0x3eb2a1a6	0.34888953
153	0x3c9f4bee	0.019445386
154	0xbe0cd65a	-0.13753644
155	0xbd28b3aa	-0.041186966
156	0x3eaf2d89	0.34214428
157	0x3e5d2553	0.2159627
158	0x3e305efb	0.17223732
159	0xbe17b150	-0.14813733
160	0x3da948e1	0.08265854
161	0x3dd53b6c	0.104117244
162	0x3e3c83e2	0.18409684
163	0x3d6d2087	0.05789235
164	0xbe5e31cb	-0.21698682
165	0xbdc39183	-0.095492385
166	0x3e3b8b44	0.18314844
167	0x3e8356bf	0.2565212
168	0xbb87db3f	-0.004146009
169	0x3e359a5d	0.17734666
170	0x3e9d7002	0.30749518
171	0x3e679e8f	0.22619079
172	0xbe58b826	-0.21163997
173	0x3ea31923	0.31855115
174	0x3dafee40	0.085903645
175	0x3e8ae7d7	0.27130005
176	0xbe64b764	-0.22335583
177	0xbe4daaed	-0.20084734
178	0x3e221e97	0.15831982
179	0x3ee97f1d	0.45604792
180	0x3e6e37ba	0.23263445
181	0x3e9b086d	0.30279866
182	0x3e566c20	0.20939684
183	0xbe9fe14e	-0.3122658
184	0xbd9ab7e5	-0.07554606
185	0xbda14d10	-0.07876027
186	0xbea47a64	-0.32124627
187	0x3e6a7a65	0.22898252
188	0x3c1ea3ca	0.009682605
189	0x3e899ce0	0.268775
190	0x3e1d7d00	0.15379715
191	0x3d3c93bd	0.04603933
192	0x3e1dacae	0.15397903
193	0xbda27946	-0.07933287
194	0xbe69ec79	-0.22844113
195	0x3c564c9f	0.013079791
196	0x3e412f7a	0.18865767
197	0x3e61d6f2	0.22054651
198	0x3e8ff48a	0.28116256
199	0xbe9706eb	-0.29497465
200	0x3df93b15	0.12169472
201	0x3eea29d1	0.45735028
202	0xbdfe2473	-0.12409296
203	0x3e1354e0	0.14387846
204	0x3dc3b420	0.095558405
205	0xbbdb6e62	-0.0066965083
206	0xbe96cb22	-0.29451853
207	0xbe4d23d2	-0.20033196
208	0xbe99ee56	-0.30064648
209	0x3e117432	0.14204481
210	0x3e44c999	0.19217528
211	0xbe4ecf10	-0.20196176
212	0x3e028971	0.12747742
213	0xbdb6fc35	-0.089348234
214	0x3e1bd0eb	0.15216415
215	0xbb27a7a1	-0.0025582092
216	0x3e4a8b62	0.19779733
217	0x3d44c3c5	0.048038263
218	0xbe7552f3	-0.23957424
219	0x3ca6dcba	0.020368923
220	0xbe138fdc	-0.14410347
221	0x3e8e2790	0.2776456
222	0xbca121bd	-0.019669408
223	0xbefdc3f3	-0.4956356
224	0xbea92fcf	-0.33044288
225	0x3e64170e	0.2227442
226	0x3d6a7de5	0.05724897
227	0xbe6d7bd1	-0.23191763
228	0x3e142cee	0.14470264
229	0xbe2cfe1c	-0.1689381
230	0x3d6bfc56	0.057613693
231	0x3ec20cab	0.3790029
232	0xbce7822f	-0.028260319
233	0xbea6af42	-0.32555586
234	0xbd8617e6	-0.06547527
235	0x3e7e82cd	0.24854584
236	0xbea24618	-0.31694102
237	0x3dcced03	0.10006144
238	0x3ca1d631	0.019755455
239	0xbe05de44	-0.13073069
240	0xbe11ea95	-0.14249642
241	0x3e91f090	0.28503847
242	0x3f010e22	0.5041219
243	0x3ebc81e3	0.36817846
244	0x3df31c86	0.11870675
245	0x3ec94bf0	0.39315748
246	0xbd73be37	-0.059507575
247	0x3d5b8e34	0.053602412
248	0xbe9e472a	-0.3091367
249	0xbda6e45b	-0.08149024
250	0x3de1a09e	0.110169634
251	0xbd6d01ac	-0.057862923
252	0xbce5393c	-0.027981393
253	0xbea60c66	-0.32431334
254	0x3ebe63d5	0.3718554
255	0x3d673074	0.056442693

module_list.1.subnet.2.weight f4 [6, 256]
0	0xbada14c8	-0.0016638273
1	0x3d1c912c	0.038224384
2	0x3bb09048	0.0053882934
3	0x3c3f464c	0.011674475
4	0x3a11b365	0.0005558043
5	0x3dc456aa	0.09586842
6	0x3e132b55	0.14371999
7	0x3dc36462	0.09540631
8	0xbf99195c	-1.1960864
9	0xbd1a4a9e	-0.037668817
10	0x3d927f4b	0.071531855
11	0xbd14283e	-0.03617119
12	0x3d8dc684	0.069226295
13	0x3d2dceb6	0.042433463
14	0x3dd744de	0.10511182
15	0x3e40d97b	0.18832962
16	0x3bb4b936	0.005515243
17	0x3eb447ec	0.35211122
18	0xbd57097f	-0.05249929
19	0x3a98e195	0.0011663908
20	0x3d3bbc2d	0.045833755
21	0xbde3316c	-0.11093411
22	0x3df4386f	0.11924826
23	0x3e01335b	0.12617247
24	0x3e23473f	0.15945147
25	0xbe2cec01	-0.16886903
26	0x3ce7a357	0.028276129
27	0x3c5062b0	0.012718841
28	0x3df82f39	0.12118382
29	0x3bddd844	0.0067701656
30	0x3bdd8802	0.006760598
31	0x3bdcf306	0.006742838
32	0xbc5f3b90	-0.013625041
33	0xbee4f86d	-0.44720784
34	0x3d0ff9fc	0.035150513
35	0xbe7ee4df	-0.24891995
36	0x3f6ae368	0.91753244
37	0x3dfe3b8b	0.12413701
38	0x3d8d16a0	0.06889081
39	0xbf5956aa	-0.84897864
40	0x3d285a2a	0.041101612
41	0x3ca62e56	0.020285767
42	0xbd074502	-0.033024795
43	0x3e0cc01c	0.13745159
44	0x3dafb355	0.08579127
45	0x3e194d16	0.14970812
46	0xbb410ce3	-0.0029457144
47	0xbf1aa099	-0.604013
48	0xbe419828	-0.18905699
49	0xbed0bafc	-0.40767658
50	0x3ced4d24	0.028967448
51	0xbf91789e	-1.1364934
52	0x3e441663	0.19149165
53	0x3d659fa6	0.056060456
54	0x3df07320	0.11740708
55	0xbc5af8a4	-0.013364945
56	0x3d7b1702	0.06130124
57	0x3de588d4	0.112077385
58	0x3df11911	0.11772359
59	0xbd45a97b	-0.048257332
60	0x3d76669c	0.06015645
61	0x3d8d2542	0.06891872
62	0xbcb0c88f	-0.021580009
63	0x3ccb7da2	0.02484018
64	0x3f140fd6	0.57836664
65	0x3dbc2035	0.091858305
66	0x3d4a45b6	0.049382888
67	0x3e603667	0.21895753
68	0xbeff832c	-0.49904764
69	0xbc2d1630	-0.010564372
70	0x3e080161	0.13281776
71	0x3e74f474	0.23921376
72	0xbe8777e7	-0.26458666
73	0x3d0a46bf	0.033758875
74	0xbd769dd0	-0.060209095
75	0xbdb0a321	-0.08624864
76	0x3dd48784	0.1037741
77	0x3dfae7be	0.122512326
78	0x3dd8007e	0.10546969
79	0x3e29e2ea	0.16590467
80	0x3ddd845e	0.10816263
81	0x3b9ad91b	0.004725588
82	0x3e0fc625	0.1404043
83	0x3d4a4693	0.04938371
84	0x3c0f6d66	0.00875411
85	0x3cb1d9ef	0.021710364
86	0x3d5d74a5	0.05406632
87	0xbb4ea68a	-0.003153237
88	0x3e40541f	0.1878209
89	0x3d0caef5	0.03434654
90	0x3d85c5fb	0.065319024
91	0x3e7fdc36	0.24986348
92	0xbb80f510	-0.0039354637
93	0x3cb5808c	0.022156022
94	0x3e0685b3	0.1313694
95	0x3d638faa	0.05555693
96	0x3dc3a995	0.095538296
97	0x3f02edfa	0.51144373
98	0x3d3dbb8e	0.046321444
99	0x3d9ace1f	0.07558846
100	0xbd06e35a	-0.032931663
101	0x3c9a7f21	0.018859448
102	0xbf22a0a6	-0.6352638
103	0xbd3c84a4	-0.046024933
104	0xbd2c9a48	-0.04213932
105	0xbe49a285	-0.19690903
106	0x3ea629c6	0.32453746
107	0x3e589f5e	0.21154544
108	0x3d6fc290	0.05853516
109	0x3dae5f44	0.08514264
110	0x3da97e7e	0.082760796
111	0x3dc5ceb0	0.09658563
112	0x3e3740bf	0.17895792
113	0x3d1b0026	0.03784194
114	0x3e3b6aec	0.18302506
115	0xbe8c9ef4	-0.27465022
116	0x3b9ca285	0.004780116
117	0x3ea8b6d4	0.32951987
118	0xbc820a3c	-0.01587402
119	0x3e241b7f	0.16026114
120	0x3ce4b7f5	0.027919749
121	0x3c34d907	0.0110380715
122	0x3c07d381	0.008290173
123	0x3e0948cf	0.1340668
124	0xbf0855be	-0.5325583
125	0x3d6a046b	0.05713312
126	0x3d1a99d8	0.037744373
127	0xbc88d5a4	-0.016703434
128	0x3dbf4f79	0.0934133
129	0x3e545d79	0.20738782
130	0xbf158312	-0.5840312
131	0x3dd13e9d	0.10217021
132	0x3e6bf267	0.23041688
133	0x3e407694	0.18795234
134	0xbe063cff	-0.13109206
135	0x3d1937f6	0.037406884
136	0xbd64ab7c	-0.055827603
137	0x3ddbe222	0.10736491
138	0x3d5c1ef9	0.053740475
139	0x3d41ec7c	0.04734467
140	0x3dbbdaf9	0.09172625
141	0x3cf1edab	0.029532274
142	0xbd868569	-0.06568415
143	0x3dbb69af	0.09151017
144	0xbd8588a8	-0.06520206
145	0xbf5040df	-0.81348985
146	0x3e002678	0.12514675
147	0x3d7570ae	0.059921913
148	0x3dc6e298	0.09711188
149	0x3d42b4a9	0.047535572
150	0xbcd2bd00	-0.025724888
151	0x3d2b7d71	0.041867677
152	0xbd4c7abc	-0.049921736
153	0x3e287958	0.16452539
154	0x3de777a4	0.113021165
155	0xbcae77f2	-0.021297429
156	0x3d7623e0	0.060092807
157	0x3e0741b9	0.13208665
158	0x3dc1ffab	0.09472593
159	0x3dad62b8	0.08466095
160	0x3e495890	0.1966269
161	0x3db08bf4	0.08620444
162	0x3db9ca3c	0.09071776
163	0xbf1d4a78	-0.61441755
164	0x3c62974f	0.01383002
165	0xbdc6480a	-0.09681709
166	0xbd6ef52e	-0.05833929
167	0x3bfa7779	0.007643637
168	0xbe0a8538	-0.13527381
169	0x3e87fee5	0.26561657
170	0x3d9d6a55	0.07686297
171	0x3d521fa2	0.0512997
172	0x3db7b23e	0.08969544
173	0x3d381684	0.044943348
174	0x3d859a4e	0.06523572
175	0x3deb218f	0.1148101
176	0xbd2b3a11	-0.041803423
177	0xbc546db6	-0.01296561
178	0x3de5fb0f	0.11229526
179	0x3e603232	0.21894148
180	0x3dfe5c65	0.124199666
181	0x3b564afe	0.0032698507
182	0x3cde321f	0.027123509
183	0xbd4e5878	-0.05037734
184	0x3d86b688	0.06577784
185	0x3e8a7e87	0.27049658
186	0x3b6fdb60	0.0036599264
187	0x3db77816	0.089584514
188	0x3d079e5d	0.03311001
189	0xbe25a95d	-0.16177888
190	0xbc8c675d	-0.017139131
191	0x3d2f1af0	0.0427503
192	0x3cf3e867	0.029773904
193	0x3caec0c5	0.021332154
194	0x3cf9a95d	0.030476267
195	0x3d490fbd	0.049087275
196	0x3cbb1ed5	0.02284185
197	0x3e3726f7	0.17885958
198	0x3e4de29c	0.20105976
199	0xbd7a08c4	-0.061043516
200	0x3d0e3004	0.03471376
201	0x3ccacf20	0.024756968
202	0xbd34854b	-0.04407243
203	0xbdc02e8a	-0.093838766
204	0x3da3a6ff	0.07990836
205	0xbc19ddcd	-0.00939126
206	0x3d48e574	0.04904695
207	0xbf0eff1c	-0.55858016
208	0xbd4de04b	-0.05026273
209	0x3e0d0895	0.13772805
210	0x3dcf989d	0.101365305
211	0xbccebab8	-0.025235519
212	0x3c658896	0.014009615
213	0x3d0ac92f	0.03388327
214	0x3dbddc49	0.09270532
215	0x3cee277a	0.029071558
216	0x3d1c0f09	0.038100276
217	0x3dd38218	0.10327548
218	0xbc4e3cc3	-0.012587729
219	0x3d0f0ae8	0.03492251
220	0x3ebc7316	0.36806554
221	0x3e2f2197	0.17102657
222	0x3d34fdd1	0.04418737
223	0xbe69611f	-0.22790955
224	0xbc86b7e4	-0.016445108
225	0xbf58b0be	-0.8464469
226	0x3e13df9e	0.14440772
227	0x3c2f2121	0.010689051
228	0xbf6b9c9f	-0.9203586
229	0x3d3f6d67	0.046735194
230	0xbefb4bed	-0.49081364
231	0x3ea2d580	0.31803513
232	0xba6ddb76	-0.0009073535
233	0xbcdc7488	-0.026911035
234	0x3d0606f3	0.03272147
235	0x3de5894e	0.112078294
236	0xbd7e7fc6	-0.062133573
237	0x3e1f5874	0.15561086
238	0xbe4e2597	-0.20131527
239	0x3db236c3	0.08701851
240	0xbd3a430d	-0.0454741
241	0x3d8a9973	0.06767549
242	0x3e0e423b	0.13892452
243	0xbda2efda	-0.07955904
244	0x3bd3fe50	0.0064695254
245	0xbec42553	-0.38309726
246	0x3d755dc3	0.05990387
247	0x3d4abd3b	0.04949687
248	0xbc87c622	-0.01657397
249	0x3d88b623	0.06675365
250	0xbdfd2817	-0.12361162
251	0x3d3b5a2d	0.045740295
252	0x3e9622b0	0.2932334
253	0x3ab78dc0	0.0014004037
254	0x3e2137bc	0.15743917
255	0x3e34b1f5	0.1764601

module_list.1.subnet.2.bias f4 [6]
0	0x3e186b51	0.14884688
1	0x3e275f6b	0.16344993
2	0x3bec69c4	0.0072147567
3	0xbd37f00e	-0.04490667
4	0x3d0619a9	0.032739315
5	0xbd0d809d	-0.034546483

module_list.2.global_scale f4 [1, 6]
0	0x4120258e	10.009169
1	0x4124c628	10.298378
2	0x4120d51c	10.052029
3	0x4122c9ec	10.174297
4	0x412af28e	10.684217
5	0x4124f7c8	10.310493

module_list.2.global_offset f4 [1, 6]
0	0xbd14c958	-0.03632483
1	0xbd3f3002	-0.046676643
2	0xbd6eb049	-0.058273587
3	0xbd331d9b	-0.043729406
4	0xbc9c808c	-0.019104265
5	0xbd0bbc5f	-0.03411519

module_list.2.w_perm f4 [6, 6]
0	0x00000000	0.0
1	0x00000000	0.0
2	0x00000000	0.0
3	0x00000000	0.0
4	0x00000000	0.0
5	0x3f800000	1.0
6	0x00000000	0.0
7	0x00000000	0.0
8	0x00000000	0.0
9	0x3f800000	1.0
10	0x00000000	0.0
11	0x00000000	0.0
12	0x00000000	0.0
13	0x00000000	0.0
14	0x00000000	0.0
15	0x00000000	0.0
16	0x3f800000	1.0
17	0x00000000	0.0
18	0x00000000	0.0
19	0x00000000	0.0
20	0x3f800000	1.0
21	0x00000000	0.0
22	0x00000000	0.0
23	0x00000000	0.0
24	0x3f800000	1.0
25	0x00000000	0.0
26	0x00000000	0.0
27	0x00000000	0.0
28	0x00000000	0.0
29	0x00000000	0.0
30	0x00000000	0.0
31	0x3f800000	1.0
32	0x00000000	0.0
33	0x00000000	0.0
34	0x00000000	0.0
35	0x00000000	0.0

module_list.2.w_perm_inv f4 [6, 6]
0	0x00000000	0.0
1	0x00000000	0.0
2	0x00000000	0.0
3	0x00000000	0.0
4	0x3f800000	1.0
5	0x00000000	0.0
6	0x00000000	0.0
7	0x00000000	0.0
8	0x00000000	0.0
9	0x00000000	0.0
10	0x00000000	0.0
11	0x3f800000	1.0
12	0x00000000	0.0
13	0x00000000	0.0
14	0x00000000	0.0
15	0x3f800000	1.0
16	0x00000000	0.0
17	0x00000000	0.0
18	0x00000000	0.0
19	0x3f800000	1.0
20	0x00000000	0.0
21	0x00000000	0.0
22	0x00000000	0.0
23	0x00000000	0.0
24	0x00000000	0.0
25	0x00000000	0.0
26	0x3f800000	1.0
27	0x00000000	0.0
28	0x00000000	0.0
29	0x00000000	0.0
30	0x3f800000	1.0
31	0x00000000	0.0
32	0x00000000	0.0
33	0x00000000	0.0
34	0x00000000	0.0
35	0x00000000	0.0
