output/best_noise/models/both/flow_final.pth (torch_old, 146362 bytes, 64 tensors)

module_list.0.global_scale f4 [1, 6]
10.213893 10.040179 10.120125 10.070407 10.021829 10.058547
00000000: 1b6c 2341 93a4 2041 08ec 2141 6320 2141
00000010: 6959 2041 cfef 2041

module_list.0.global_offset f4 [1, 6]
-0.041182883 -0.010693861 -0.021876058 -0.021084372 -0.049419608 -0.0066809966
00000000: 62af 28bd 4e35 2fbc 6b35 b3bc 22b9 acbc
00000010: 376c 4abd 43ec dabb

module_list.0.w_perm f4 [6, 6]
0.0 0.0 1.0 0.0 0.0 0.0 0.0 0.0
0.0 1.0 0.0 0.0 1.0 0.0 0.0 0.0
0.0 0.0 0.0 1.0 0.0 0.0 0.0 0.0
0.0 0.0 0.0 0.0 1.0 0.0 0.0 0.0
0.0 0.0 0.0 1.0
00000000: 0000 0000 0000 0000 0000 803f 0000 0000
00000010: 0000 0000 0000 0000 0000 0000 0000 0000
00000020: 0000 0000 0000 803f 0000 0000 0000 0000
00000030: 0000 803f 0000 0000 0000 0000 0000 0000
00000040: 0000 0000 0000 0000 0000 0000 0000 803f
00000050: 0000 0000 0000 0000 0000 0000 0000 0000
00000060: 0000 0000 0000 0000 0000 0000 0000 0000
00000070: 0000 803f 0000 0000 0000 0000 0000 0000
00000080: 0000 0000 0000 0000 0000 0000 0000 803f

module_list.0.w_perm_inv f4 [6, 6]
0.0 0.0 1.0 0.0 0.0 0.0 0.0 0.0
0.0 1.0 0.0 0.0 1.0 0.0 0.0 0.0
0.0 0.0 0.0 1.0 0.0 0.0 0.0 0.0
0.0 0.0 0.0 0.0 1.0 0.0 0.0 0.0
0.0 0.0 0.0 1.0
00000000: 0000 0000 0000 0000 0000 803f 0000 0000
00000010: 0000 0000 0000 0000 0000 0000 0000 0000
00000020: 0000 0000 0000 803f 0000 0000 0000 0000
00000030: 0000 803f 0000 0000 0000 0000 0000 0000
00000040: 0000 0000 0000 0000 0000 0000 0000 803f
00000050: 0000 0000 0000 0000 0000 0000 0000 0000
00000060: 0000 0000 0000 0000 0000 0000 0000 0000
00000070: 0000 803f 0000 0000 0000 0000 0000 0000
00000080: 0000 0000 0000 0000 0000 0000 0000 803f

module_list.0.subnet.0.weight f4 [256, 9]
0.08746019 0.21557437 -0.3482948 0.009518786 -0.21587251 -0.3657031 -0.31235176 -0.0015589073
-0.09035986 -0.15844434 0.385932 -0.06709855 0.008789566 0.130839 -0.3188918 -0.1683335
0.08205931 0.12422255 -0.31168988 0.036408875 0.12675989 0.23294392 -0.07843765 -0.16786095
0.02202278 -0.07639049 0.20414154 -0.15952389 -0.14495118 0.039244827 -0.15024595 0.17652225
-0.28419435 0.31321654 -0.16349076 -0.015481369 0.045365356 -0.1056294 0.25326928 -0.082097635
0.28082454 -0.30925125 0.0076743145 0.18032517 -0.24555562 -0.33965644 -0.1964384 -0.03289956
-0.029254422 -0.11497013 -0.15098688 0.066892155 -0.26312906 -0.10332438 -0.037467703 -0.06615794
0.3309659 0.26210278 -0.2745654 -0.09540646 -0.23200896 -0.35829288 -0.27574235 0.18702106
0.32884997 0.0703557 0.17270054 -0.27819434 0.11277256 0.14178768 0.28501484 -0.25751346
0.01113078 0.40077418 -0.20050314 -0.097083695 -0.07585371 -0.1426483 -0.27565587 0.13285322
0.08791544 0.17435223 0.016386582 -0.025767552 0.32650778 -0.14010303 0.27140927 -0.0037659882
0.1865282 -0.21171902 0.36799604 -0.23503906 0.0045612934 -0.20285484 -0.23999214 -0.26040694
-0.09958827 -0.2478138 -0.04600985 -0.04920664 -0.25630555 -0.1282036 0.032155357 0.018778041
0.12515207 0.324716 0.22184685 -0.162686 -0.2858118 -0.17220311 -0.33084577 0.0947715
-0.19267912 -0.18711336 -0.11253591 0.053356867 -0.3089994 -0.21429017 0.16716646 -0.11175271
-0.24326235 0.089944825 0.1506788 -0.018097349 0.13303654 0.2493797 0.0046517043 0.29511118
-0.10827761 -0.04437187 0.14173937 0.21536303 -0.26261842 0.08225012 -0.36569986 -0.08835133
-0.37214175 -0.14772516 -0.18774317 -0.22913386 0.29692644 -0.25240132 0.07211195 0.1705106
-0.027015943 -0.05477481 -0.12328346 0.0974719 0.11335052 0.11692422 -0.08004014 0.04783499
0.12232215 0.06712702 -0.18950424 0.063929014 0.21409038 0.32660154 0.2827655 0.21078368
-0.23022547 0.08288721 -0.17508453 -0.053064976 0.1914422 -0.09954361 0.26645938 -0.2699056
-0.10193679 0.020572625 0.08455412 0.086104125 -0.03488889 -0.095248036 -0.0059372173 -0.13518502
-0.050488476 -0.03536504 -0.19707386 0.19154568 0.031238766 -0.23553804 0.31177673 0.056158014
-0.16388758 0.23712058 0.06650859 0.2984574 -0.17514937 0.01788684 0.19979168 0.07729899
-0.32218224 -0.05535782 -0.14851284 -0.18688828 0.006921237 -0.29841718 -0.11316494 0.029908013
-0.2739349 0.23897053 -0.1313004 0.054219592 0.20291467 0.2754567 -0.02451154 -0.44518605
0.0974449 0.20507158 -0.049086798 -0.016817218 -0.35522538 -0.01344943 -0.39824608 0.22715166
0.1408892 0.19211943 -0.23139483 -0.14296174 -0.15009008 -0.35775638 -0.09922351 0.034901686
0.20578927 -0.009740884 -0.0147302095 0.007140134 -0.05159826 0.15840402 0.023614585 0.18154868
0.018191129 -0.3672387 -0.23579161 -0.21615615 -0.08120758 -0.15295409 -0.29096028 0.14766681
-0.032154486 0.18009807 -0.041944798 0.15975529 -0.3143775 -0.12403856 -0.16303015 0.01124682
0.12669943 -0.17238341 -0.26009467 0.108833164 -0.000852209 -0.13281265 -0.049214933 0.31829602
00000000: 541e b33d 87bf 5c3e b253 b2be aff4 1b3c
00000010: af0d 5dbe 703d bbbe 92ec 9fbe 4054 ccba
00000020: 970e b9bd 3c3f 22be e198 c53e f76a 89bd
00000030: 1d02 103c a9fa 053e c945 a3be 9e5f 2cbe
00000040: b60e a83d 6468 fe3d d195 9fbe 7921 153d
00000050: 58cd 013e da88 6e3e eba3 a0bd bee3 2bbe
00000060: 1e69 b43c 9e72 9cbd 7b0a 513e 3b5a 23be
00000070: 156e 14be 2fbf 203d 13da 19be 40c2 343e
00000080: ec81 91be eb5d a03e 1f6a 27be 91a5 7dbc
00000090: 06d1 393d 3a54 d8bd 83ac 813e ce22 a8bd
000000a0: 3cc8 8f3e 2e56 9ebe d178 fb3b 29a7 383e
000000b0: ef72 7bbe 73e7 adbe 2627 49be b0c1 06bd
000000c0: f8a6 efbc 7675 ebbd 4e9c 1abe c1fe 883d
000000d0: dab8 86be bc9b d3bd bc77 19bd d07d 87bd
000000e0: 5d74 a93e 5632 863e d693 8cbe 7664 c3bd
000000f0: c293 6dbe 2a72 b7be 1a2e 8dbe 7382 3f3e
00000100: 065f a83e a616 903d 69d8 303e 7d6f 8ebe
00000110: 4df5 e63d ca30 113e 77ed 913e ced8 83be
00000120: e05d 363c 4632 cd3e b250 4dbe d1d3 c6bd
00000130: 3159 9bbd 6512 12be c422 8dbe ad0a 083e
00000140: 030d b43d 6489 323e 273d 863c 7916 d3bc
00000150: 072c a73e 2b77 0fbe 28f6 8a3e ccce 76bb
00000160: 4001 3f3e dfcc 58be fa69 bc3e 14ae 70be
00000170: e776 953b 2eb9 4fbe 80c0 75be 0f54 85be
00000180: eff4 cbbd e7c2 7dbe d374 3cbd e78c 49bd
00000190: 7b3a 83be ce47 03be 56b5 033d 68d4 993c
000001a0: dd27 003e 2d41 a63e d22b 633e 2997 26be
000001b0: ed55 92be 0356 30be 9e64 a9be 8f17 c23d
000001c0: ad4d 45be a59a 3fbe 3a79 e6bd bb8c 5a3d
000001d0: 2b35 9ebe e26e 5bbe af2d 2b3e 9bde e4bd
000001e0: c419 79be fe34 b83d 8b4b 1a3e e440 94bc
000001f0: bb3a 083e 645d 7f3e 536d 983b d018 973e
00000200: a7c0 ddbd 47bf 35bd 2024 113e 2088 5c3e
00000210: ec75 86be c072 a83d 033d bbbe 8bf1 b4bd
00000220: 5d89 bebe 4445 17be bf3f 40be 11a2 6abe
00000230: be06 983e bf3a 81be 6eaf 933d 559a 2e3e
00000240: 8a50 ddbc 8d5b 60bd 0a7c fcbd 599f c73d
00000250: 5124 e83d f775 ef3d 16ec a3bd 9fee 433d
00000260: 0984 fa3d e479 893d 660d 42be 37ed 823d
00000270: 823a 5b3e 5138 a73e a4c6 903e add7 573e
00000280: 3ac0 6bbe c5c0 a93d 5c49 33be a95a 59bd
00000290: 6d09 443e 85dd cbbd 5d6d 883e 1131 8abe
000002a0: 3cc4 d0bd ec87 a83c b62a ad3d 5c57 b03d
000002b0: a7e7 0ebd 6711 c3bd fd8c c2bb f16d 0abe
000002c0: 01cd 4ebd efda 10bd bbcd 49be 8d24 443e
000002d0: 71e8 ff3c e230 71be 33a1 9f3e f205 663d
000002e0: 25d2 27be bdcf 723e a835 883d 69cf 983e
000002f0: 5b5a 33be 6c87 923c 3196 4c3e ef4e 9e3d
00000300: 12f5 a4be e2be 62bd c013 18be a45f 3fbe
00000310: 8bcb e23b 23ca 98be 05c3 e7bd a601 f53c
00000320: 3241 8cbe b1b4 743e 9d73 06be 5d15 5e3d
00000330: ddc8 4f3e a908 8d3e 6dcc c8bc 6def e3be
00000340: 3191 c73d 49fe 513e 3d0f 49bd 43c4 89bc
00000350: 1ae0 b5be ff5a 5cbc e9e6 cbbe 729a 683e
00000360: 4245 103e f5ba 443e c4f2 6cbe 9064 12be
00000370: 37b1 19be d82b b7be b235 cbbd 12f5 0e3d
00000380: 6cba 523e 3b98 1fbc fa56 71bc c9f7 e93b
00000390: b258 53bd aa34 223e 6073 c13c e6e7 393e
000003a0: 9005 953c b606 bcbe 5b73 71be 0a58 5dbe
000003b0: 2950 a6bd ff9f 1cbe bff8 94be f835 173e
000003c0: 6cb4 03bd a16b 383e 4fce 2bbd e496 233e
000003d0: 16f6 a0be ee07 febd 60f1 26be 9544 383c
000003e0: 7fbd 013e 4785 30be 212b 85be ece3 de3d
000003f0: c766 5fba 0a00 08be 9995 49bd b2f7 a23e

module_list.0.subnet.0.bias f4 [256]
0.19008173 0.07088469 -0.27371827 0.28612614 0.06346306 -0.11876854 0.07415199 0.15061195
0.23140265 -0.24359855 0.2813013 0.028523507 0.07974353 -0.32996684 0.10743879 0.2684994
0.21014439 -0.08249044 0.03403379 -0.36561856 0.3815734 0.15165414 -0.056020364 -0.06744156
0.09542898 0.10890331 0.072410844 -0.0317014 -0.042368043 0.118132375 0.36170334 -0.146784
-0.34376144 0.28485918 -0.059771564 -0.09796741 -0.12104939 -0.24693969 0.25806728 0.17720579
0.031149287 0.30337173 0.25978118 0.31558964 0.31277123 0.2824246 0.07932579 0.0131633915
-0.27776724 -0.10120035 -0.26479268 -0.015179884 0.21980752 -0.1623273 -0.21581404 0.34954906
0.3600687 0.037072442 -0.29234052 0.36658472 -0.17795485 -0.015572177 -0.0786341 0.1893973
0.17711188 -0.06787521 -0.04152957 -0.23411384 -0.2403386 0.15775056 0.24774395 -0.031507723
-0.062448706 0.250093 -0.10902956 0.22847623 -0.3124545 0.17631538 -0.17402723 -0.029080976
-0.25509202 -0.17467327 0.2408183 -0.16885377 -0.14609584 -0.23257975 -0.17491248 0.30701855
-0.121781446 -0.12758729 0.29612562 0.0014889663 -0.087501004 0.33327392 -0.18090108 -0.24087107
0.3100987 -0.1516724 0.22973333 0.10963329 -0.054565378 0.15008596 -0.16866386 -0.067187466
-0.00555375 0.049528673 -0.16042344 0.09449746 0.26828068 -0.19385535 -0.2586752 0.18577032
-0.077693105 0.21094605 0.26175815 0.27169576 -0.05314607 -0.18451296 0.119324625 -0.20875467
0.22135201 0.051459208 -0.19102411 0.052431416 -0.11134227 0.025016291 0.3988149 0.11687767
0.08381332 -0.07011093 -0.041026104 -0.11241181 -0.31072494 0.24053474 -0.15809166 -0.044055916
0.28586605 0.22699429 0.12460888 0.1985965 0.18716826 0.068829045 -0.33375573 -0.120072246
0.25581023 0.3052877 -0.003240005 0.25649625 0.18074143 0.13274093 -0.027437951 -0.115067065
-0.080640845 0.08770444 0.04894801 -0.19806321 0.10752136 -0.21864474 0.2610045 0.33863178
0.23350878 -0.119919 0.06718133 0.035054304 0.28307962 -0.06020919 -0.04133092 0.3249918
0.2154324 -0.29265046 0.20877045 -0.21932042 0.34146613 -0.33442274 0.31556594 0.01659619
0.01103356 0.208908 -0.27756673 0.000677774 0.30367988 -0.122589745 0.3246924 -0.17085055
-0.086243756 0.18699628 0.01169919 0.29150936 0.0009977422 0.43425938 0.3060239 0.19762741
0.10909889 -0.35495093 -0.25346562 0.3972325 0.26874834 0.09980648 0.36631912 0.24063912
-0.15260677 -0.16526143 -0.16116887 0.21066488 0.10287377 -0.017230371 0.14498676 0.11211135
0.20261031 -0.036213487 -0.21460284 -0.100278154 -0.19548896 -0.08465891 0.31308663 -0.18232612
0.09645229 -0.27578154 0.033299208 -0.09032406 0.07742577 0.2919998 0.014298837 -0.009226913
-0.088473774 0.06298424 0.21090853 -0.031443376 0.3087321 0.0073736836 -0.18656613 0.27129447
-0.06419501 0.06502953 -0.27150235 0.20309667 0.2573151 0.11489457 0.3387109 0.11401584
0.23305331 0.1840262 -0.23936893 0.2916436 0.13011709 0.30048966 0.35979316 -0.20233762
-0.10069298 -0.17399818 -0.12066083 -0.20389523 -0.15127215 0.337879 0.36161974 -0.27304173
00000000: c9a4 423e fe2b 913d cd24 8cbe 207f 923e
00000010: ecf8 813d ec3c f3bd 00dd 973d 053a 1a3e
00000020: d1f4 6c3e e671 79be b906 903e 21aa e93c
00000030: 9350 a33d 6af1 a8be de08 dc3d c178 893e
00000040: 1730 573e bff0 a8bd 0467 0b3d 5b32 bbbe
00000050: 975d c33e 394b 1b3e 9c75 65bd cd1e 8abd
00000060: 4570 c33d b308 df3d 234c 943d 54d9 01bd
00000070: 1d8a 2dbd 63ef f13d 2e31 b93e 8b4e 16be
00000080: 8001 b0be 10d9 913e 07d3 74bd 23a3 c8bd
00000090: bee8 f7bd c2dd 7cbe 6521 843e 6f75 353e
000000a0: ca2c ff3c 8a53 9b3e 0a02 853e f794 a13e
000000b0: 8d23 a03e f599 903e 8f75 a23d 44ab 573c
000000c0: 8237 8ebe 2142 cfbd e892 87be 0cb5 78bc
000000d0: 3915 613e 2139 26be 5bfe 5cbe 18f8 b23e
000000e0: ed5a b83e 46d9 173d a8ad 95be feb0 bb3e
000000f0: cc39 36be 7222 7fbc ea0a a1bd 5ef1 413e
00000100: d15c 353e 2802 8bbd e91a 2abd 8abb 6fbe
00000110: 521b 76be 5d89 213e 97b0 7d3e 3e0e 01bd
00000120: 37ca 7fbd 310c 803e e44a dfbd acf5 693e
00000130: 09fa 9fbe 058c 343e 3234 32be 3a3b eebc
00000140: 6c9b 82be 8ddd 32be 1399 763e 01e8 2cbe
00000150: 269a 15be 6329 6ebe 421c 33be 8931 9d3e
00000160: 8d68 f9bd 3ea6 02be c79d 973e 6b29 c33a
00000170: ba33 b3bd e1a2 aa3e 223e 39be e8a6 76be
00000180: 42c5 9e3e 0250 1bbe 373f 6b3e 6b87 e03d
00000190: f27f 5fbd 22b0 193e 38b6 2cbe 9599 89bd
000001a0: 3bfc b5bb 94de 4a3d 0b46 24be e287 c13d
000001b0: 165c 893e 0482 46be 1371 84be 933a 3e3e
000001c0: 901d 9fbd 3e02 583e 2a05 863e b51b 8b3e
000001d0: b2af 59bd f7f0 3cbe 7860 f43d c9c3 55be
000001e0: 1aaa 623e e4c6 523d d39b 43be 53c2 563d
000001f0: 6b07 e4bd f7ee cc3c 7731 cc3e 8f5d ef3d
00000200: 51a6 ab3d 5296 8fbd fd0a 28bd 2a38 e6bd
00000210: 5717 9fbe bd4e 763e c8e2 21be fa73 34bd
00000220: 095d 923e 3171 683e f132 ff3d e25c 4b3e
00000230: 09a9 3f3e 3ef6 8c3d 08e2 aabe 70e8 f5bd
00000240: 8ff9 823e ab4e 9c3e 4456 54bb 7a53 833e
00000250: 4814 393e 3ded 073e 8ec5 e0bc 48a8 ebbd
00000260: 0727 a5bd 639e b33d b57d 483d 15d1 4abe
00000270: 2934 dc3d 68e4 5fbe 62a2 853e 2561 ad3e
00000280: ed1c 6f3e 1898 f5bd 5d96 893d 1a95 0f3d
00000290: d0ef 903e e99d 76bd 9c4a 29bd 5365 a63e
000002a0: 509a 5c3e 48d6 95be ecc7 553e 8895 60be
000002b0: a6d4 ae3e 7539 abbe dc91 a13e bcf4 873c
000002c0: 1bc6 343c fbeb 553e 3a1d 8ebe a5ac 313a
000002d0: ee7b 9b3e 5510 fbbd 153e a63e 72f3 2ebe
000002e0: 91a0 b0bd f47b 3f3e f6ad 3f3c b740 953e
000002f0: acc6 823a 3f57 de3e 2aaf 9c3e d75e 4a3e
00000300: 3d6f df3d 21bc b5be 3fc6 81be 0f62 cb3e
00000310: 6299 893e 5767 cc3d 2e8e bb3e 1a6a 763e
00000320: f344 1cbe 4b3a 29be 7409 25be 89b8 573e
00000330: 7caf d23d b526 8dbc 6977 143e a39a e53d
00000340: 1479 4f3e 9854 14bd d9c0 5bbe a25e cdbd
00000350: 422e 48be a761 adbd e44c a03e b3b3 3abe
00000360: c788 c53d 3d33 8dbe c064 083d d2fb b8bd
00000370: 6791 9e3d ff80 953e ab45 6a3c 7a2c 17bc
00000380: bd31 b5bd e2fd 803d 68f8 573e c5ca 00bd
00000390: 2212 9e3e f19e f13b 310b 3fbe 1ce7 8a3e
000003a0: ac78 83bd 342e 853d 5b02 8bbe 93f8 4f3e
000003b0: cebe 833e d84d eb3d 846b ad3e 2381 e93d
000003c0: 87a5 6e3e 5d71 3c3e 211d 75be 4f52 953e
000003d0: 6a3d 053e c8d9 993e cf36 b83e 9831 4fbe
000003e0: 1f38 cebd 942c 32be 061d f7bd e9c9 50be
000003f0: 16e7 1abe 7afe ac3e 3926 b93e 20cc 8bbe

module_list.0.subnet.2.weight f4 [6, 256]
0.098748386 0.083625376 0.057055213 0.10353487 0.057771254 -0.0019465634 0.07290132 0.056961767
0.07076796 -0.04824692 0.06727018 0.0096834805 0.13778143 0.014634701 0.06743767 0.0080953855
0.1012765 -0.022512358 0.08267867 0.00022830033 -0.007862101 0.020278905 0.011767103 0.019038206
0.031452827 -0.011546937 -0.026998542 0.06601159 0.0980185 -0.020733725 0.058713898 -0.040861964
-0.013040732 0.09668159 -0.031650916 0.03810272 0.035051044 0.05185373 0.008602439 -0.005158463
-0.007305711 0.05312028 0.070493475 0.030966556 0.058335472 0.055922765 -0.0368469 -0.02276437
-0.07616412 0.029769337 0.022430908 0.023185484 0.065045 -0.013153205 0.16988376 0.027530419
0.087407045 0.026819453 0.04930973 0.053082213 0.05247867 0.045292076 -0.02779564 0.046645544
0.046356086 -4.0654795e-05 0.057427634 -0.046532363 -0.030622652 0.06992014 0.011619315 -0.0010090796
-0.042028747 -0.0036430035 0.014681349 0.016028838 -0.012830388 0.09758224 -0.019624729 0.027172895
-0.011815987 0.0056909192 0.016199566 0.024273641 0.0680509 -0.08643158 -0.05289403 0.038073424
0.017187407 -0.011229822 -0.01686549 0.11700425 0.09282088 0.026977792 0.048474617 -0.065524824
0.07037559 0.017396858 0.07044162 -0.018664883 0.07029326 0.062509015 -0.014197029 -0.013415528
0.0044578663 0.075008474 0.004575114 0.02213828 0.05540859 0.036555003 -0.085309826 0.08538941
-0.0033475484 0.09120012 0.039474566 0.11357507 -0.05423618 -0.052730247 0.08013091 -0.07793606
0.097629495 0.04858819 -0.0012771579 0.05033456 -0.028601324 0.04223768 0.09525063 -0.009199297
-0.102630064 -0.052540217 -0.09001783 -0.013664238 -0.12699404 0.03151224 -0.020346908 -0.016440809
-0.00040950376 0.01141226 -0.020395793 -0.0075044823 0.085400164 -0.028629065 -0.009635147 0.019755896
0.08169563 0.0023247055 -0.01557575 0.030831853 0.029615015 0.067885526 0.08021657 -0.0021873359
-0.08355542 0.025229977 0.022690663 0.027352931 0.03449652 -0.091959 0.038539186 0.07538316
0.02971253 -0.021471238 0.08536745 -0.021076845 0.01854058 -0.010272647 0.090434186 0.06500606
-0.009129327 -0.02699887 0.101934604 -0.05859662 0.08906301 0.042074095 0.09747597 0.09912866
-0.0037275895 0.08329866 0.025832929 0.027621543 0.055633485 0.057242498 0.11461625 -0.058868613
0.0673029 0.0362016 0.071111456 0.08326203 0.020437112 0.08902129 0.012352676 -0.021654181
0.0058080577 0.00432264 -0.03472889 0.034229223 0.026993025 0.067931406 0.039992258 0.08760818
-0.061086267 0.07130378 0.07121282 0.012596724 0.056125574 0.070707455 0.028930705 0.05721401
0.014003117 -0.07790019 -0.008165367 -0.012513581 -0.021459164 -0.0026751412 0.07291859 0.04198533
0.036195762 -0.018823063 0.043935675 -0.021299588 -0.027977403 0.078900136 -0.034059044 0.0277745
0.030723965 0.13723627 0.049017083 0.012580737 0.009445125 0.08544282 0.03444542 0.06622904
-0.024645701 -0.0017519038 0.052009672 0.05791273 0.08403363 0.16287458 0.041286647 -0.0028825419
0.108039595 0.0028048314 0.03444116 0.012546213 0.10855039 0.08701068 0.07346398 -0.00965264
-0.06833417 -0.05939048 -0.040937517 0.09756032 0.01941814 0.040439375 -0.017783312 -0.05978
00000000: 983c ca3d c843 ab3d bab2 693d 170a d43d
00000010: 8da1 6c3d d423 ffba 4a4d 953d be50 693d
00000020: cbee 903d 909e 45bd f3c4 893d 76a7 1e3c
00000030: 9316 0d3e 63c6 6f3c c31c 8a3d 82a2 043c
00000040: 0e6a cf3d d66b b8bc 6f53 a93d e763 6f39
00000050: 0bd0 00bc f21f a63c cfca 403c 03f6 9b3c
00000060: aed4 003d 5d2f 3dbc 0c2c ddbc 1631 873d
00000070: ecbd c83d c6d9 a9bc fc7d 703d e05e 27bd
00000080: cba8 55bc ff00 c63d 64a4 01bd 9911 1c3d
00000090: af91 0f3d 9464 543d 3ff1 0c3c 5308 a9bb
000000a0: bf64 efbb a794 593d e25e 903d 93ad fd3c
000000b0: 2df1 6e3d 450f 653d c6ec 16bd 587c babc
000000c0: effb 9bbd d3de f33c 06c1 b73c 7cef bd3c
000000d0: 5036 853d 8a80 57bc 02f6 2d3e 7987 e13c
000000e0: 7702 b33d 78b4 db3c 00f9 493d bc6c 593d
000000f0: e0f3 563d 2f84 393d afb3 e3bc 660f 3f3d
00000100: e1df 3d3d c184 2ab8 3d39 6b3d b898 3ebd
00000110: 5bdc fabc 4a32 8f3d f05e 3e3c 1843 84ba
00000120: 5626 2cbd 75bf 6ebb 0a8a 703c e94e 833c
00000130: 8c36 52bc 33d9 c73d 0ac4 a0bc b199 de3c
00000140: d797 41bc e47a ba3b f4b4 843c 84d9 c63c
00000150: 455e 8b3d 0a03 b1bd 69a7 58bd e1f2 1b3d
00000160: 9bcc 8c3c 4afd 37bc 7f29 8abc ed9f ef3d
00000170: e018 be3d 8800 dd3c 528d 463d e131 86bd
00000180: 1421 903d db83 8e3c b243 903d 19e7 98bc
00000190: eaf5 8f3d ba04 803d a89a 68bc cecc 5bbc
000001a0: 4b13 923b 0b9e 993d d7ea 953b 575b b53c
000001b0: 1ef4 623d b3ba 153d ebb6 aebd a5e0 ae3d
000001c0: 8b62 5bbb 21c7 ba3d 15b0 213d 0c9a e83d
000001d0: c226 5ebd acfb 57bd ad1b a43d f19c 9fbd
000001e0: f9f1 c73d 6904 473d 4f66 a7ba 9d2b 4e3d
000001f0: 534d eabc 6b01 2d3d c312 c33d a6b8 16bc
00000200: b62f d2bd 6934 57bd 455b b8bd f8df 5fbc
00000210: ba0a 02be fb12 013d 8fae a6bc e0ae 86bc
00000220: aab2 d6b9 7dfa 3a3c 1415 a7bc 29e8 f5bb
00000230: 48e6 ae3d 8087 eabc bcdc 1dbc 1ed7 a13c
00000240: 0a50 a73d 165a 183b 6e31 7fbc 1593 fc3c
00000250: 309b f23c 9107 8b3d 9648 a43d 6859 0fbb
00000260: 1b1f abbd 19af ce3c c5e1 b93c 4113 e03c
00000270: 394c 0d3d 0055 bcbd 44db 1d3d 7c62 9a3d
00000280: b167 f33c 73e4 afbc 21d5 ae3d 59a9 acbc
00000290: 6ae2 973c 9b4e 28bc 8f35 b93d e621 853d
000002a0: 2c93 15bc bc2c ddbc 17c3 d03d 0203 70bd
000002b0: ab66 b63d e355 2c3d 7ba1 c73d f803 cb3d
000002c0: 934a 74bb 7d98 aa3d 949f d33c 9346 e23c
000002d0: f0df 633d 1c77 6a3d edbb ea3d 3720 71bd
000002e0: 1ad6 893d 2148 143d e2a2 913d 4885 aa3d
000002f0: bb6b a73c cb50 b63d e162 4a3c 1c64 b1bc
00000300: 8551 be3b efa4 8d3b e13f 0ebd f133 0c3d
00000310: 7a20 dd3c 9f1f 8b3d ecce 233d eb6b b33d
00000320: 9835 7abd b707 923d 07d8 913d 7d62 4e3c
00000330: eee3 653d 12cf 903d 1600 ed3c 3d59 6a3d
00000340: 546d 653c 238a 9fbd 08c8 05bc c305 4dbc
00000350: 21cb afbc 6c51 2fbb 5756 953d cff8 2b3d
00000360: 0242 143d d332 9abc e5f5 333d 797c aebc
00000370: de30 e5bc 6596 a13d 7f81 0bbd 5987 e33c
00000380: d3b0 fb3c aa87 0c3e 23c6 483d 6f1f 4e3c
00000390: babf 1a3c a5fc ae3d a416 0d3d 17a3 873d
000003a0: c8e5 c9bc 23a0 e5ba 1808 553d e635 6d3d
000003b0: d319 ac3d 98c8 263e 301c 293d 07e9 3cbb
000003c0: dd43 dd3d 43d1 373b 2c12 0d3d a28e 4d3c
000003d0: ab4f de3d a832 b23d 4874 963d 1b26 1ebc
000003e0: c9f2 8bbd 6f43 73bd 19ae 27bd b4cd c73d
000003f0: cb12 9f3c c2a3 253d 4fae 91bc e0db 74bd

module_list.0.subnet.2.bias f4 [6]
0.019937014 0.025598109 0.058330856 0.010736186 -0.026498003 -0.026787315
00000000: f352 a33c 20b3 d13c 56ec 6e3d d4e6 2f3c
00000010: 5712 d9bc 1271 dbbc

module_list.1.global_scale f4 [1, 6]
10.127592 10.070142 10.228855 10.058303 10.030492 10.061493
00000000: 9e0a 2241 4d1f 2141 64a9 2341 cfee 2041
00000010: e57c 2041 e0fb 2041

module_list.1.global_offset f4 [1, 6]
-0.018631384 -0.028441597 -0.04702001 -0.01565247 -0.04201003 -0.006126291
00000000: d8a0 98bc 5afe e8bc 0e98 40bd 9c39 80bc
00000010: b612 2cbd 0ebf c8bb

module_list.1.w_perm f4 [6, 6]
1.0 0.0 0.0 0.0 0.0 0.0 0.0 0.0
1.0 0.0 0.0 0.0 0.0 0.0 0.0 0.0
0.0 1.0 0.0 1.0 0.0 0.0 0.0 0.0
0.0 0.0 0.0 1.0 0.0 0.0 0.0 0.0
0.0 0.0 1.0 0.0
00000000: 0000 803f 0000 0000 0000 0000 0000 0000
00000010: 0000 0000 0000 0000 0000 0000 0000 0000
00000020: 0000 803f 0000 0000 0000 0000 0000 0000
00000030: 0000 0000 0000 0000 0000 0000 0000 0000
00000040: 0000 0000 0000 803f 0000 0000 0000 803f
00000050: 0000 0000 0000 0000 0000 0000 0000 0000
00000060: 0000 0000 0000 0000 0000 0000 0000 803f
00000070: 0000 0000 0000 0000 0000 0000 0000 0000
00000080: 0000 0000 0000 0000 0000 803f 0000 0000

module_list.1.w_perm_inv f4 [6, 6]
1.0 0.0 0.0 0.0 0.0 0.0 0.0 0.0
0.0 1.0 0.0 0.0 0.0 1.0 0.0 0.0
0.0 0.0 0.0 0.0 0.0 0.0 1.0 0.0
0.0 0.0 0.0 0.0 0.0 1.0 0.0 0.0
1.0 0.0 0.0 0.0
00000000: 0000 803f 0000 0000 0000 0000 0000 0000
00000010: 0000 0000 0000 0000 0000 0000 0000 0000
00000020: 0000 0000 0000 803f 0000 0000 0000 0000
00000030: 0000 0000 0000 803f 0000 0000 0000 0000
00000040: 0000 0000 0000 0000 0000 0000 0000 0000
00000050: 0000 0000 0000 0000 0000 803f 0000 0000
00000060: 0000 0000 0000 0000 0000 0000 0000 0000
00000070: 0000 0000 0000 803f 0000 0000 0000 0000
00000080: 0000 803f 0000 0000 0000 0000 0000 0000

module_list.1.subnet.0.weight f4 [256, 9]
0.19547378 0.035114184 -0.09822939 0.2374069 0.28165394 -0.3745756 -0.2450081 0.09585732
-0.26358533 0.3144031 0.27828288 0.31184223 0.19185576 0.095032446 -0.065897845 -0.2266873
-0.03842906 -0.0049724183 -0.19027944 -0.2663549 0.17356616 0.24307807 -0.0019069094 0.12564425
-0.30011648 0.08306917 0.026563616 -0.10299724 0.28044918 -0.08367746 -0.061704602 -0.18423119
-0.35380682 -0.13200486 0.264137 0.1711207 -0.29308823 0.15664999 -0.07564424 0.31309184
-0.32709768 -0.2535715 -0.22871518 0.0077995444 -0.32406178 -0.14691678 0.06861797 -0.079037465
0.07881322 -0.039590336 0.060108766 0.36026412 0.21834318 0.14074196 -0.25332403 0.17039135
0.06041657 0.26594892 -0.04515413 -0.30602658 -0.083099924 0.27646405 -0.35137025 0.1052071
-0.060688194 -0.24380857 0.36827952 0.2611672 -0.057248536 -0.2554664 0.13621612 -0.24993774
0.29340395 0.28904366 0.15799211 -0.060778916 0.23637556 0.18219113 -0.053050365 -0.21118745
-0.051249616 0.047924396 -0.053902864 0.1157468 -0.27118272 0.15742724 0.0014554488 0.15795913
-0.056193735 0.10510089 0.31871143 0.31762958 -0.058909446 0.16943395 -0.0015916559 0.2708049
-0.07216957 0.23306224 -0.23979548 -0.023816003 -0.11075115 -0.1714837 -0.11916512 0.08922035
-0.0039255945 -0.17681913 0.23072813 -0.36173445 0.18505664 -0.3087346 0.0066166525 0.2024754
0.30054608 0.30173543 0.30637428 0.3493763 0.036990773 -0.25780597 0.37779775 0.3048933
0.1789807 0.27984196 -0.12642805 0.0072813644 0.0925522 -0.024954092 0.14425543 0.34606993
-0.24050876 0.16593713 -0.37433147 -0.19248217 -0.2015525 0.08936133 -0.3118435 0.38231173
0.14301711 0.22848812 0.09617965 -0.24523512 -0.057732075 -0.16420455 -0.2910183 0.17781317
-0.24777806 -0.0646684 -0.19179454 0.073839754 0.045201395 0.10457691 -0.19394502 0.16365902
0.18644038 0.37568596 -0.25515807 -0.32788002 -0.03935681 0.07867588 -0.31138715 0.015438312
-0.07272819 -0.2724039 -0.21483816 0.23798138 0.053745966 0.2672519 -0.39140007 -0.07050473
0.32503226 0.011230266 0.22128543 0.21676157 -0.22347656 -0.09836336 0.04954226 -0.07848816
0.2898158 0.2153514 -0.18863961 -0.2969746 -0.23690763 -0.2657015 -0.110138 0.23903415
0.39524528 -0.24482511 -0.045537516 0.19801462 -0.011165025 0.20433573 -0.17061108 -0.101840414
-0.2995803 -0.018784726 0.24272105 0.05163276 -0.0052023064 0.058640618 0.2398374 0.06376038
-0.056770295 0.22832562 -0.34548828 -0.054187715 0.07623473 -0.22107694 0.035433244 0.02727557
-0.021226974 0.18580586 0.027183427 -0.16390398 -0.14045021 0.116712034 -0.16051541 -0.47058046
-0.1696958 0.20454906 0.31234014 0.21626954 0.19729029 0.06407043 0.008790324 -0.12930456
-0.1427775 -0.17629555 0.15535666 0.19642557 0.23364371 -0.40527797 -0.2784454 0.16622937
0.06103978 -0.2180584 -0.2508542 -0.058476698 -0.02589695 0.11734693 0.3353615 0.24823745
-0.24963318 -0.30644706 0.30846602 0.30628517 0.3030111 0.046582762 -0.29722205 -0.059051707
-0.025069509 -0.2983245 -0.23370358 0.22182351 -0.02426945 0.12295675 -0.24568236 0.07187041
00000000: 472a 483e e4d3 0f3d 7e2c c9bd cb1a 733e
00000010: f234 903e 5fc8 bfbe 67e3 7abe d850 c43d
00000020: a8f4 86be 71f9 a03e 187b 8e3e c9a9 9f3e
00000030: d675 443e 5fa0 c23d 73f5 86bd b720 68be
00000040: ca67 1dbd abef a2bb 9dd8 42be ab5f 88be
00000050: 54bb 313e 75e9 783e 43f1 f9ba e3a8 003e
00000060: dea8 99be 2b20 aa3d f19b d93c 38f0 d2bd
00000070: 0997 8f3e 175f abbd f7bd 7cbd 1aa7 3cbe
00000080: 2b26 b5be 482c 07be f73c 873e 443a 2f3e
00000090: a90f 96be db68 203e 5eeb 9abd 934d a03e
000000a0: 5979 a7be 20d4 81be 5034 6abe 5293 ff3b
000000b0: 6deb a5be 5a71 16be 9487 8c3d 65de a1bd
000000c0: d368 a13d 7a29 22bd 9c34 763d 8a74 b83e
000000d0: 5b95 5f3e a91e 103e b0b3 81be 127b 2e3e
000000e0: 5e77 773d 752a 883e 89f3 38bd 84af 9cbe
000000f0: 4b30 aabd b28c 8d3e cde6 b3be d276 d73d
00000100: 2f94 78bd f4a8 79be 228f bc3e b5b7 853e
00000110: 717d 6abd 7ecc 82be 3d7c 0b3e aeef 7fbe
00000120: 0b39 963e 88fd 933e afc8 213e 50f3 78bd
00000130: 6f0c 723e 5090 3a3e 574b 59bd 8641 58be
00000140: 1eeb 51bd 5f4c 443d 40c9 5cbd a90c ed3d
00000150: 76d8 8abe 9b34 213e c2c4 be3a 0ac0 213e
00000160: 672b 66bd 233f d73d 252e a33e 58a0 a23e
00000170: 084b 71bd 1880 2d3e 1c9f d0ba f1a6 8a3e
00000180: a4cd 93bd dea7 6e3e f28c 75be c719 c3bc
00000190: 80d1 e2bd 6c99 2fbe d80c f4bd 29b9 b63d
000001a0: 46a2 80bb 1310 35be ff43 6c3e 4235 b9be
000001b0: 7d7f 3d3e 7612 9ebe 81d0 d83b b655 4f3e
000001c0: 2de1 993e 117d 9a3e 17dd 9c3e 73e1 b23e
000001d0: a383 173d 25ff 83be b56e c13e fa1a 9c3e
000001e0: b746 373e 7247 8f3e 5b76 01be 8398 ee3b
000001f0: 028c bd3d 866c ccbc b2b7 133e 1430 b13e
00000200: ee47 76be 6ceb 293e 60a8 bfbe 0c1a 45be
00000210: c763 4ebe 1303 b73d f4a9 9fbe 5dbe c33e
00000220: 1473 123e caf8 693e d6f9 c43d ea1e 7bbe
00000230: 7878 6cbd 3d25 28be 5a00 95be a814 363e
00000240: 88b9 7dbe de70 84bd ca65 44be 4c39 973d
00000250: 1925 393d 6b2c d63d 8699 46be 3b96 273e
00000260: 3aea 3e3e e959 c03e 14a4 82be e4df a7be
00000270: 9b34 21bd d220 a13d 236e 9fbe f9f0 7c3c
00000280: 84f2 94bd 8678 8bbe 89fe 5bbe 64b1 733e
00000290: bb24 5c3d 3ed5 883e 9765 c8be c964 90bd
000002a0: a16a a63e 26ff 373c a698 623e bff6 5d3e
000002b0: 0ad7 64be bb72 c9bd d3ec 4a3d 67be a0bd
000002c0: bd62 943e 1485 5c3e be2a 41be 0e0d 98be
000002d0: ea97 72be 070a 88be 0890 e1bd 5ec5 743e
000002e0: 975d ca3e 6fb3 7abe 8c85 3abd 58c4 4a3e
000002f0: 82ed 36bc 633d 513e acb4 2ebe b591 d0bd
00000300: 9762 99be 6de2 99bc de8b 783e df7c 533d
00000310: 1c78 aabb 2531 703d ef97 753e cd94 823d
00000320: f887 68bd 31ce 693e d7e3 b0be f0f3 5dbd
00000330: f420 9c3d fe61 62be 7322 113d 0471 df3c
00000340: 31e4 adbc e443 3e3e c7af de3c 72d6 27be
00000350: 2ed2 0fbe b806 ef3d 275e 24be ecef f0be
00000360: bcc4 2dbe 4f75 513e 0ceb 9f3e c375 5d3e
00000370: 7706 4a3e 5c37 833d 4b05 103c 6a68 04be
00000380: 4434 12be d286 34be d115 1f3e c923 493e
00000390: 4c40 6f3e 9880 cfbe 6590 8ebe 0838 2a3e
000003a0: d904 7a3d b44a 5fbe f66f 80be 4385 6fbd
000003b0: d725 d4bc 9653 f03d 81b4 ab3e f531 7e3e
000003c0: d79f 7fbe a1e6 9cbe 42ef 9d3e 69d1 9c3e
000003d0: 4524 9b3e 91cd 3e3d 7d2d 98be 34e0 71bd
000003e0: 925e cdbc fdbd 98be fe4f 6fbe b425 633e
000003f0: bad0 c6bc c0d0 fb3d 2894 7bbe cb30 933d

module_list.1.subnet.0.bias f4 [256]
0.007356858 0.08140901 -0.32140312 0.06776926 0.35759583 0.18577296 0.29438636 0.25102925
-0.26302132 -0.04238984 0.035342794 -0.17753601 -0.047615793 -0.030225534 0.24848011 0.033003073
-0.08029926 -0.20563331 0.3184261 0.16714725 0.2677952 -0.24995922 0.16902524 0.057373606
0.18491362 0.2919085 0.015939385 0.1914802 -0.11921393 0.07616019 -0.17013258 0.21969564
0.17940128 -0.2749749 0.2776906 0.20480596 0.34332877 0.21184628 0.10674113 -0.28591484
-0.18271953 0.06610083 0.34313595 0.43303627 -0.1199774 0.23022544 -0.17913164 0.03636951
0.33149627 -0.2692859 -0.025404986 0.12401986 0.17459337 0.13805346 0.124256544 0.030934993
0.066417284 -0.31568035 0.16238512 0.0707269 -0.13455395 0.34910852 -0.31170332 0.3934388
-0.21870165 0.24283984 0.13565609 0.2053641 -0.13715516 -0.35258356 -0.08329681 0.13262516
-0.3748384 -0.13143972 -0.02853152 0.2703581 -0.23375255 -0.26451474 -0.21419778 0.3851509
-0.28857464 0.24676315 0.22777803 0.129236 -0.2085131 0.035332236 0.10380763 0.15623349
0.09045788 -0.122582816 0.2717291 -0.35295153 -0.022542799 0.054053526 -0.007284692 0.19825108
0.28878868 0.18899775 0.22239691 -0.35112333 -0.059432436 -0.269153 -0.16816892 0.30591878
0.2617119 -0.2559182 -0.2450613 0.23755574 -0.2813399 -0.021906044 -0.24661757 0.28408927
-0.07941069 0.26660776 -0.058343496 -0.15492073 0.28320852 -0.105489515 -0.23690641 -0.102514565
0.2948024 0.23523921 0.22785716 0.23468155 -0.14394777 -0.27746594 0.06891933 0.17231336
-0.28899783 0.008996037 0.106570035 -0.29346406 0.36935306 -0.13799025 0.016710699 0.34273967
-0.21177015 0.29691148 0.34240228 0.015960185 -0.02953807 0.14280175 -0.02124276 0.02476761
0.36337548 -0.019357195 0.090392165 0.09696111 0.14854084 -0.018897837 -0.11858991 -0.13933218
0.36333498 -0.07007015 0.27241945 -0.18826975 0.23366879 0.24302636 0.2159233 -0.04079273
0.3449527 -0.24793892 0.37224713 -0.17483515 0.029596424 0.20918708 0.14174227 0.020991424
0.28234324 -0.16634017 -0.022323467 0.18608753 0.34560433 0.321056 -0.053172126 0.16014864
0.098802626 -0.12356016 0.040319473 -0.29124746 0.32291085 0.41191408 -0.286049 -0.10704972
-0.26933968 0.34419626 -0.1280338 0.19281323 0.36046994 0.27246317 -0.17502764 -0.026376482
-0.198661 -0.23551227 -0.14421248 0.17505103 0.39865437 -0.120014586 0.3739577 0.35012874
0.1432365 0.16506277 0.3223409 0.3474684 -0.12085708 -0.35682145 0.03432583 -0.1598639
0.28451675 0.06843833 0.06314824 -0.13366313 0.014399359 -0.013829638 -0.230724 0.18559839
0.38542074 0.028219717 0.19664267 -0.058207832 0.20581372 -0.2482878 0.24202405 -0.27721816
0.2704182 0.1646588 -0.3355562 -0.17654409 -0.3053372 0.11120526 0.0851524 0.20790091
0.040365115 -0.29166123 0.3941328 0.2213967 -0.047658052 0.19738661 0.2161851 0.39945382
-0.36934918 0.04775779 0.36387268 0.18417443 0.18402658 -0.0206486 -0.27198115 0.25702387
0.2104199 -0.31462073 0.11218566 0.24008179 0.20619847 -0.22859395 0.048907246 0.18754888
00000000: cc11 f13b c4b9 a63d f38e a4be 9cca 8a3d
00000010: cd16 b73e 443b 3e3e cfb9 963e e886 803e
00000020: bbaa 86be f8a0 2dbd 9bc3 103d 00cc 35be
00000030: c708 43bd 8a9b f7bc 9271 7e3e 3b2e 073d
00000040: f073 a4bd 8a91 52be bf08 a33e a628 2b3e
00000050: 741c 893e 4ff5 7fbe f414 2d3e 9600 6b3d
00000060: ff59 3d3e 0875 953e 5093 823c 6313 443e
00000070: 6f26 f4bd e0f9 9b3d 3c37 2ebe e5f7 603e
00000080: f8b4 373e 83c9 8cbe 762d 8e3e a7b8 513e
00000090: cac8 af3e 3bee 583e 189b da3d 6e63 92be
000000a0: d41a 3bbe df5f 873d 84af af3e eeb6 dd3e
000000b0: b6b6 f5bd 38c0 6b3e 496e 37be 32f8 143d
000000c0: e1b9 a93e d7df 89be 1e1e d0bc 20fe fd3d
000000d0: 9bc8 323e e35d 0d3e 377a fe3d 626b fd3c
000000e0: c905 883d dba0 a1be 4948 263e 44d9 903d
000000f0: 83c8 09be 5abe b23e 9497 9fbe cf70 c93e
00000100: 53f3 5fbe 02ab 783e 6ee9 0a3e f74a 523e
00000110: 6772 0cbe d585 b4be 8597 aabd e4ce 073e
00000120: d2ea bfbe 2298 06be efba e9bc 606c 8a3e
00000130: d45c 6fbe 7a6e 87be aa56 5bbe 8032 c53e
00000140: 0ec0 93be 7baf 7c3e a53e 693e 7156 043e
00000150: 7584 55be 89b8 103d 1899 d43d acfb 1f3e
00000160: fb41 b93d b30c fbbd 1420 8b3e 10b6 b4be
00000170: adab b8bc 3b67 5d3d 6db4 eebb 5502 4b3e
00000180: 1cdc 933e a088 413e 04bc 633e 70c6 b3be
00000190: 6d6f 73bd 6cce 89be 7934 2cbe 63a1 9c3e
000001a0: 1aff 853e b607 83be 59f1 7abe d041 733e
000001b0: c90b 90be 4e74 b3bc 5189 7cbe 2674 913e
000001c0: 12a2 a2bd d080 883e 97f9 6ebd 8aa3 1ebe
000001d0: b500 913e e30a d8bd 9897 72be 28f3 d1bd
000001e0: 57f0 963e 8ce2 703e 6353 693e 5c50 703e
000001f0: 0b67 13be 0410 8ebe 9425 8d3d ea72 303e
00000200: 86f7 93be 1d64 133c 6441 da3d ec40 96be
00000210: d81b bd3e 514d 0dbe e0e4 883c 937b af3e
00000220: 46da 58be c804 983e 5a4f af3e efbe 823c
00000230: d3f9 f1bc 9f3a 123e 4c05 aebc 71e5 ca3c
00000240: 5a0c ba3e fb92 9ebc 871f b93d 8c93 c63d
00000250: 171b 183e a3cf 9abc 44df f2bd 18ad 0ebe
00000260: 0b07 ba3e f080 8fbd 907a 8b3e c9c9 40be
00000270: df46 6f3e e7db 783e ff1a 5d3e 4716 27bd
00000280: a49d b03e b3e3 7dbe 2d97 be3e fc07 33be
00000290: 3374 f23c 2335 563e e324 113e 35f6 ab3c
000002a0: 4b8f 903e 1455 2abe b4df b6bc bb8d 3e3e
000002b0: 0df3 b03e 7461 a43e 04cb 59bd 01fe 233e
000002c0: 0859 ca3d 1c0d fdbd 0826 253d 631e 95be
000002d0: 9254 a53e 67e6 d23e 0475 92be e23c dbbd
000002e0: e4e6 89be 7e3a b03e 4b1b 03be d570 453e
000002f0: 848f b83e 4b80 8b3e 723a 33be 7e13 d8bc
00000300: ca6d 4bbe 212a 71be 70ac 13be 9440 333e
00000310: 6d1c cc3e 35ca f5bd 6277 bf3e 1344 b33e
00000320: 97ac 123e 3706 293e de09 a53e 61e7 b13e
00000330: eb83 f7bd 4db1 b6be 3e99 0c3d 5db3 23be
00000340: 2eac 913e 6529 8c3d dd53 813d fdde 08be
00000350: 4aeb 6b3c b595 62bc ea42 6cbe 810d 3e3e
00000360: de55 c53e 092d e73c b25c 493e 566b 6ebd
00000370: d5c0 523e 283f 7ebe 27d5 773e 8aef 8dbe
00000380: 4174 8a3e 519c 283e 06ce abbe f9c7 34be
00000390: 2855 9cbe 95bf e33d 6264 ae3d fae3 543e
000003a0: e455 253d 9f54 95be c6cb c93e d1b5 623e
000003b0: 1735 43bd b71f 4a3e a05f 5d3e 3685 cc3e
000003c0: 561b bdbe ac9d 433d 854d ba3e 3998 3c3e
000003d0: 7771 3c3e 4127 a9bc 1d41 8bbe a298 833e
000003e0: 5078 573e f815 a1be 98c1 e53d 00d8 753e
000003f0: b125 533e 8814 6abe f752 483d d00c 403e

module_list.1.subnet.2.weight f4 [6, 256]
0.03288541 0.044268645 0.064646386 0.064828634 0.0127344625 0.07349155 0.076381065 -0.005583048
-0.04135445 -0.024535632 0.0046569826 -0.028061774 -0.02132871 -0.009574741 0.12775965 0.08689232
-0.06799945 -0.13553454 0.0837047 -0.00820532 -0.0032565028 -0.056347646 0.066755936 -0.012371608
0.08172803 0.07055863 -0.02815803 0.07503304 0.032654464 -0.045606293 -0.005452131 0.0520858
0.052602846 0.089049585 0.07665717 0.09508036 0.046806883 0.078322805 -0.03941723 0.0065565594
0.0076422044 0.17701589 0.12581663 0.082857154 -0.1362691 0.023629678 0.05704702 0.05477426
0.087004766 -0.040189568 -0.0026218204 0.045166735 0.012410666 0.01345232 0.0079522375 0.019953376
0.0664919 0.032732256 -0.021002466 -0.14039607 -0.04126498 0.005146275 -0.04334118 0.0150428815
0.03012539 0.031037975 -0.0023320855 0.0014387826 -0.015783492 -0.0027041119 0.0055263764 0.056140766
0.07130069 0.010274041 -0.07727882 0.006513879 -0.03461209 -0.022095094 -0.09018506 -0.03861181
-0.018639224 -0.025003338 0.011766237 0.13790303 -0.07708002 0.054917112 -0.09935296 0.03498417
0.05272569 0.021740567 -0.0303864 -0.0058932533 0.11234972 0.09455482 -0.10328877 0.009367442
0.115133345 -0.037208218 -0.03441026 -0.03333738 0.045247596 0.063038096 0.04982605 -0.0077130026
0.10197093 0.17551334 -0.066293746 0.03035292 -0.010601746 -0.003770148 -0.10890501 0.054910015
0.06818023 0.015241438 -0.066767864 -0.04301148 0.067505985 -0.0006459638 0.024759762 0.005342133
0.08271301 0.19081286 0.104484126 0.026377618 -0.07689595 0.02707442 -0.021664286 -0.006026142
0.004011249 -0.083534144 -0.0034202593 -0.060938228 0.12384339 0.024226762 0.13846795 0.049972314
-0.0037162243 0.12599398 0.069646515 0.006096233 0.028882744 0.03881715 0.045748014 0.068547636
0.07593393 0.06923775 0.060203396 0.010145093 -0.003762857 0.044556536 -0.0801509 0.008030979
0.11952297 0.012494992 0.07951258 0.07709724 0.114540994 0.09270957 0.11414066 0.111383595
0.062033586 -0.11148978 0.0858083 0.0055820877 -0.0910346 0.025965847 0.08356439 -0.029568713
0.103884816 -0.027858164 -0.002867541 0.04643127 -0.0040916046 0.082640715 -0.025544183 0.06989112
0.09229919 0.061070178 0.05090886 -0.05020407 0.015888743 0.09481263 -0.048504543 0.00809225
0.077041596 0.0013331131 0.17753167 0.085205264 0.088319786 0.05035193 0.03426543 0.11064859
-0.05180489 -0.0112455245 -0.16524234 -0.0539554 0.12264374 -0.14963423 0.02149419 0.05875284
-0.021872219 0.044919293 -0.006619649 0.03434057 -0.112270914 -0.003205448 0.059807792 0.01338763
0.05770521 0.06867938 0.050829396 0.008237721 0.07040446 0.043319836 -0.014004116 0.037462093
0.085120015 0.17515756 0.02007521 -0.012905861 -0.008771607 0.14837748 0.04475012 0.028951803
0.061764505 0.09534042 -0.054335997 0.08956411 -0.1345104 -0.006439523 0.087211035 0.014038043
0.061550856 -0.024028236 0.083441906 0.05913303 0.045535464 0.042445436 -0.00080234226 0.0630277
0.13794883 0.054884493 0.049488526 -0.013082838 -0.014871897 0.015005594 -0.013460465 0.021068802
-0.009006073 0.03298754 0.047844138 0.080593415 -0.09921656 -0.11054396 -0.06150862 0.089466855
00000000: dab2 063d 0a53 353d 5365 843d e0c4 843d
00000010: 35a4 503c bd82 963d ad6d 9c3d 00f2 b6bb
00000020: 4963 29bd f3fe c8bc 9a99 983b cee1 e5bc
00000030: 8cb9 aebc 60df 1cbc 6dd3 023e 9af4 b13d
00000040: 4c43 8bbd 91c9 0abe 5f6d ab3d 9b6f 06bc
00000050: 0d6b 55bb cacc 66bd 56b7 883d 49b2 4abc
00000060: 0761 a73d 0b81 903d abab e6bc ecaa 993d
00000070: b0c0 053d aacd 3abd caa7 b2bb eb57 553d
00000080: 1576 573d a15f b63d 6ffe 9c3d 7eb9 c23d
00000090: 93b8 3f3d b567 a03d f673 21bd 68d8 d63b
000000a0: 756b fa3b a743 353e 13d6 003e 03b1 a93d
000000b0: 208a 0bbe 0793 c13c 23aa 693d f95a 603d
000000c0: 8e2f b23d d19d 24bd d9d2 2bbb c100 393d
000000d0: 1b56 4b3c 1f67 5c3c 1a4a 023c 4375 a33c
000000e0: e82c 883d 4212 063d 5d0d acbc fdc3 0fbe
000000f0: 7805 29bd 15a2 a83b 8586 31bd 6b76 763c
00000100: 86c9 f63c 5a43 fe3c e7d5 18bb 8895 bc3a
00000110: 624c 81bc 7837 31bb 9b16 b53b dcf3 653d
00000120: 1906 923d 7454 283c 5c44 9ebd 6172 d53b
00000130: 68c5 0dbd c500 b5bc f2b2 b8bd 6b27 1ebd
00000140: 49b1 98bc cdd3 ccbc 2dc7 403c 7436 0d3e
00000150: 21dc 9dbd c4f0 603d 9179 cbbd 904b 0f3d
00000160: e5f6 573d 4619 b23c e6ec f8bc 311c c1bb
00000170: 9c17 e63d f5a5 c13d 1089 d3bd e679 193c
00000180: 08cb eb3d a567 18bd c6f1 0cbd c78c 08bd
00000190: 8b55 393d 1e1a 813d 6616 4c3d 5bbd fcbb
000001a0: 23d6 d03d c5b9 333e 04c5 87bd b0a6 f83c
000001b0: f2b2 2dbc 9614 77bb 9709 dfbd 53e9 603d
000001c0: 14a2 8b3d 39b7 793c 97bd 88bd ce2c 30bd
000001d0: 9440 8a3d e655 29ba fcd4 ca3c 0f0d af3b
000001e0: 7065 a93d 7264 433e c6fb d53d e015 d83c
000001f0: a07b 9dbd 2dcb dd3c 4d79 b1bc f176 c5bb
00000200: cc70 833b f313 abbd 6e26 60bb 5d9a 79bd
00000210: 9aa1 fd3d 3477 c63c 8bca 0d3e c5af 4c3d
00000220: e68b 73bb 9104 013e d5a2 8e3d e9c2 c73b
00000230: 819b ec3c bbfe 1e3d 4562 3b3d b462 8c3d
00000240: 4083 9b3d 85cc 8d3d d697 763d 9b37 263c
00000250: 449a 76bb ea80 363d 2826 a4bd 5e94 033c
00000260: 75c8 f43d ccb7 4c3c 7ed7 a23d 28e5 9d3d
00000270: 7894 ea3d 84de bd3d 94c2 e93d 151d e43d
00000280: ee16 7e3d c154 e4bd 43bc af3d f2e9 b63b
00000290: 5970 babd 54b6 d43c cf23 ab3d 163a f2bc
000002a0: 90c1 d43d ce36 e4bc 5bed 3bbb b72e 3e3d
000002b0: de12 86bb 893f a93d 0942 d1bc 1323 8f3d
000002c0: 5c07 bd3d b924 7a3d cf85 503d c8a2 4dbd
000002d0: 1c29 823c 202d c23d b3ac 46bd 5b95 043c
000002e0: fcc7 9d3d dabb ae3a ddca 353e 1980 ae3d
000002f0: 01e1 b43d d33d 4e3d e859 0c3d ba9b e23d
00000300: 5d31 54bd 263f 38bc 4a35 29be 5600 5dbd
00000310: a42c fb3d b739 19be 9514 b03c d1a6 703d
00000320: 5e2d b3bc 4bfd 373d a4e9 d8bb b3a8 0c3d
00000330: 4bee e5bd 7e12 52bb 04f9 743d ca57 5b3c
00000340: 4c5c 6c3d c6a7 8c3d 7c32 503d 82f7 063c
00000350: 3730 903d 2470 313d 8571 65bc da71 193d
00000360: 6753 ae3d 815c 333e c474 a43c 1b73 53bc
00000370: c9b6 0fbc 44f0 173e e74b 373d 552c ed3c
00000380: c7fc 7c3d d741 c33d 6c8f 5ebd 636d b73d
00000390: 18bd 09be a202 d3bb b39b b23d d2ff 653c
000003a0: c01c 7c3d ddd6 c4bc 97e3 aa3d 7a35 723d
000003b0: 6583 3a3d 44db 2d3d 4754 52ba ab14 813d
000003c0: 7542 0d3e 90ce 603d 7bb4 4a3d 6659 56bc
000003d0: 42a9 73bc 06da 753c 4889 5cbc 7b98 ac3c
000003e0: 358e 13bc f11d 073d 37f8 433d 290e a53d
000003f0: 0d32 cbbd df64 e2bd 76f0 7bbd 663a b73d

module_list.1.subnet.2.bias f4 [6]
0.057459198 -0.016047774 0.09069543 0.040522624 -0.060069665 0.052025136
00000000: 565a 6b3d 9f76 83bc 87be b93d 0dfb 253d
00000010: 9c0b 76bd 4f18 553d

module_list.2.global_scale f4 [1, 6]
10.127804 10.237893 10.043997 10.093761 10.099384 10.056973
00000000: 7c0b 2241 69ce 2341 36b4 2041 0c80 2141
00000010: 1497 2141 5de9 2041

module_list.2.global_offset f4 [1, 6]
-0.028874256 -0.053214133 -0.014799187 -0.018516544 -0.012378695 -0.028662514
00000000: b489 ecbc 10f7 59bd 4a78 72bc 02b0 97bc
00000010: 03d0 4abc a6cd eabc

module_list.2.w_perm f4 [6, 6]
0.0 0.0 0.0 1.0 0.0 0.0 1.0 0.0
0.0 0.0 0.0 0.0 0.0 0.0 0.0 0.0
0.0 1.0 0.0 0.0 1.0 0.0 0.0 0.0
0.0 1.0 0.0 0.0 0.0 0.0 0.0 0.0
0.0 0.0 1.0 0.0
00000000: 0000 0000 0000 0000 0000 0000 0000 803f
00000010: 0000 0000 0000 0000 0000 803f 0000 0000
00000020: 0000 0000 0000 0000 0000 0000 0000 0000
00000030: 0000 0000 0000 0000 0000 0000 0000 0000
00000040: 0000 0000 0000 803f 0000 0000 0000 0000
00000050: 0000 803f 0000 0000 0000 0000 0000 0000
00000060: 0000 0000 0000 803f 0000 0000 0000 0000
00000070: 0000 0000 0000 0000 0000 0000 0000 0000
00000080: 0000 0000 0000 0000 0000 803f 0000 0000

module_list.2.w_perm_inv f4 [6, 6]
0.0 1.0 0.0 0.0 0.0 0.0 0.0 0.0
0.0 0.0 1.0 0.0 0.0 0.0 0.0 1.0
0.0 0.0 1.0 0.0 0.0 0.0 0.0 0.0
0.0 0.0 0.0 0.0 0.0 1.0 0.0 0.0
1.0 0.0 0.0 0.0
00000000: 0000 0000 0000 803f 0000 0000 0000 0000
00000010: 0000 0000 0000 0000 0000 0000 0000 0000
00000020: 0000 0000 0000 0000 0000 803f 0000 0000
00000030: 0000 0000 0000 0000 0000 0000 0000 803f
00000040: 0000 0000 0000 0000 0000 803f 0000 0000
00000050: 0000 0000 0000 0000 0000 0000 0000 0000
00000060: 0000 0000 0000 0000 0000 0000 0000 0000
00000070: 0000 0000 0000 803f 0000 0000 0000 0000
00000080: 0000 803f 0000 0000 0000 0000 0000 0000

module_list.2.subnet.0.weight f4 [256, 9]
0.18596105 -0.28452936 0.330111 0.16868481 0.023792803 -0.3796025 -0.080196425 -0.19497207
-0.18183465 -0.097216725 -0.42988762 -0.051795464 0.04128697 0.22692105 0.09160954 -0.092141636
-0.38801372 0.28627253 0.14696026 0.32628348 0.45231462 0.10280423 0.001234249 0.0010243129
-0.15293017 -0.13911407 0.28747174 -0.0071901474 0.45678023 -0.55688435 0.26808262 -0.0716462
0.19256093 0.2824967 0.015190155 -0.15164666 -0.14005534 0.2109549 -0.0068889232 0.082017735
-0.08968431 0.18592781 -0.104891196 0.33786932 0.2494219 0.30612004 -0.14465556 -0.14790617
0.2921636 -0.20131086 -0.10902558 0.24053296 -0.068130605 0.08419257 0.18963175 0.2955171
-0.012516173 0.12021328 0.1958241 0.11567714 -0.028184947 -0.3725374 -0.08798357 0.105388634
0.19180195 -0.5502021 0.32420865 0.15313753 -0.20755807 -0.090352066 -0.28502914 0.09384859
-0.11301881 -0.033688266 0.03113761 -0.18331802 -0.10341063 0.36822185 -0.10652589 0.29311988
-0.08145416 0.28393018 -0.2072903 0.25751954 -0.024228215 0.14133453 0.008463409 0.3070328
-0.2507193 -0.040902045 0.113896385 0.0049473746 -0.76179683 -0.22364663 -0.008207083 -0.33044842
-0.042269573 0.0638059 -0.04171108 -0.12503132 -0.048409387 -0.24403256 -0.14727065 -0.15982166
-0.3339239 -0.19526191 -0.3560623 -0.26459953 0.28680035 0.25281227 -0.63589555 -0.13811342
-0.17752284 0.21741317 0.1851122 -0.4295724 -0.31840032 0.28901497 -0.20150135 0.37511125
0.14417945 0.24078953 0.21248686 0.33773035 -0.284514 -0.02135278 -0.055508636 0.42033824
-0.3757713 -0.13181877 0.084221885 0.19065832 0.33578268 -0.103371285 -0.33832034 -0.031985596
0.07713778 0.42559722 0.17790048 -0.017474603 0.044078406 0.24404329 0.24584818 0.05094017
-0.19177839 -0.13764481 0.25409466 0.012142889 -0.12165081 0.21810563 -0.32084817 -0.013140607
0.17962949 0.09765105 -0.09723846 -0.64473456 -0.118841715 -0.20852485 0.053282797 0.09421291
0.13480316 -0.13057287 0.058114037 -0.30996707 0.15775478 0.21542653 0.014396717 0.2480036
0.1183476 -0.12426355 0.09557641 -0.12652181 -0.062436588 0.2653472 0.02757401 -0.10091653
0.24121764 -0.12569898 -0.21807633 0.12767461 -0.16105264 0.24823047 -0.3061844 -0.2616757
0.36563084 0.2680559 0.1327728 -0.16292241 0.2501624 -0.15685877 0.10554771 -0.6674518
-0.07326731 0.15875 0.20912428 0.3522689 -0.14412366 0.12384484 0.05937375 0.22027072
0.26964682 0.3346127 -0.08007076 0.13181446 0.063219555 -0.09766282 -0.28696677 -0.1457564
-0.13471788 -0.17396612 -0.17713754 0.2848801 0.26854864 0.1974909 -0.29407507 0.2220897
-0.16555437 0.15502207 -0.179744 -0.2933126 0.20271568 -0.10433037 0.18182619 0.33856988
-0.1469295 0.08464811 0.23141229 0.103673786 -0.16478309 -0.35922843 0.22496021 0.31866452
-0.19438802 0.1819431 0.30711332 0.091945335 0.12805879 0.07161287 -0.19348527 0.23994473
0.0011519366 -0.28302467 0.12641746 -0.28520367 0.25165638 0.17304134 -0.03525143 -0.1603001
0.11077684 0.08505128 0.17528613 -0.2941381 -0.018070076 -0.022375628 -0.068042696 0.25712404
00000000: 936c 3e3e d5ad 91be 4f04 a93e b6bb 2c3e
00000010: 20e9 c23c 425b c2be 063e a4bd c2a6 47be
00000020: dd32 3abe 9019 c7bd 3b1a dcbe 7b27 54bd
00000030: 871c 293d fe5d 683e c89d bb3d c1b4 bcbd
00000040: bca9 c6be 5092 923e c07c 163e a10e a73e
00000050: c895 e73e 068b d23d 86c6 a13a 3d42 863a
00000060: ba99 1cbe eb73 0ebe 7f2f 933e 549b ebbb
00000070: 19df e93e f98f 0ebf 2042 893e 3ebb 92bd
00000080: b12e 453e 68a3 903e 21e0 783c 4349 1bbe
00000090: ab6a 0fbe 9004 583e 7abc e1bb eaf8 a73d
000000a0: 68ac b7bd dc63 3e3e 32d1 d6bd 35fd ac3e
000000b0: 7468 7f3e c4bb 9c3e 9620 14be b774 17be
000000c0: 7896 953e 6f24 4ebe ce48 dfbd 464e 763e
000000d0: 0f88 8bbd 276d ac3d d32e 423e 044e 973e
000000e0: a210 4dbc 6132 f63d 1d86 483e 23e8 ec3d
000000f0: 1ee4 e6bc 39bd bebe bb30 b4bd ffd5 d73d
00000100: bb67 443e 0bda 0cbf adfe a53e 16d0 1c3e
00000110: 1a8a 54be 810a b9bd 57ef 91be b133 c03d
00000120: 6876 e7bd b5fc 09bd 4d14 ff3c b8b7 3bbe
00000130: f4c8 d3bd 9387 bc3e 3f2a dabd cf13 963e
00000140: 70d1 a6bd 4c5f 913e e943 54be 9ad9 833e
00000150: 407a c6bc 00ba 103e 1caa 0a3c 6733 9d3e
00000160: 485e 80be e788 27bd 8242 e93d 961d a23b
00000170: 1e05 43bf 9f03 65be 0077 06bc 8930 a9be
00000180: dc22 2dbd abac 823d 3dd9 2abd 3608 00be
00000190: ec48 46bd ace3 79be 1ece 16be 4aa8 23be
000001a0: 13f8 aabe bdf2 47be cc4d b6be 9779 87be
000001b0: 7fd7 923e 9c70 813e 0dca 22bf 9b6d 0dbe
000001c0: 8cc8 35be 8fa1 5e3e 0d8e 3d3e eaf0 dbbe
000001d0: 5e05 a3be c5f9 933e 5f56 4ebe 950e c03e
000001e0: c7a3 133e 8891 763e 2896 593e feea ac3e
000001f0: d2ab 91be 06ec aebc 065d 63bd 9336 d73e
00000200: 1965 c0be 80fb 06be 867c ac3d ef3b 433e
00000210: b5eb ab3e 53b4 d3bd 5338 adbe 5403 03bd
00000220: 6afa 9d3d e1e7 d93e 8b2b 363e e626 8fbc
00000230: 8f8b 343d 7ce6 793e a0bf 7b3e a4a6 503d
00000240: 8e61 44be c3f2 0cbe b218 823e f8f2 463c
00000250: 0f24 f9bd 1557 5f3e 3646 a4be b34b 57bc
00000260: cbf0 373e 46fd c73d f524 c7bd 530d 25bf
00000270: 4963 f3bd 8a87 55be 103f 5a3d b3f2 c03d
00000280: d709 0a3e e5b4 05be fc08 6e3d 01b4 9ebe
00000290: 788a 213e c698 5c3e 35e0 6b3c a8f4 7d3e
000002a0: 3a60 f23d e37d febd 91bd c33d ef8e 01be
000002b0: 82bd 7fbd 97db 873e e4e2 e13c 53ad cebd
000002c0: c201 773e 3cb7 00be 674f 5fbe 22bd 023e
000002d0: fcea 24be 2130 7e3e 34c4 9cbe 5bfa 85be
000002e0: f733 bb3e 9f3e 893e 98f5 073e 22d5 26be
000002f0: 4915 803e 969f 20be 6629 d83d 1fde 2abf
00000300: 2c0d 96bd 5c8f 223e ad24 563e 975c b43e
00000310: 2795 13be 5da2 fd3d e431 733d a68e 613e
00000320: 260f 8a3e 5b52 ab3e 23fc a3bd 5ffa 063e
00000330: 4179 813d 7203 c8bd 4fed 92be 2a41 15be
00000340: 7cf3 09be 2d24 32be 8b63 35be cedb 913e
00000350: 357f 893e 0e3b 4a3e 0291 96be 7b6b 633e
00000360: 1687 29be 1bbe 1e3e d00e 38be 122d 96be
00000370: b394 4f3e 29ab d5bd a530 3a3e 0859 ad3e
00000380: b074 16be fd5b ad3d 58f7 6c3e ec52 d43d
00000390: e6bc 28be caec b7be f85b 663e ff27 a33e
000003a0: a70d 47be 4b4f 3a3e f53d 9d3e d64d bc3d
000003b0: d821 033e c5a9 923d 0121 46be 12b4 753e
000003c0: 94fc 963a 9ce8 90be 9473 013e 3706 92be
000003d0: 1bd9 803e c031 313e ce63 10bd b625 24be
000003e0: f8de e23d 5e2f ae3d 357e 333e 4599 96be
000003f0: b207 94bc 184d b7bc f859 8bbd c3a5 833e
